experiments/BlockPush/predictors/PlaySlot/behaviors/Policy_AllDemos/models/ActDec_BlockPush.pth (torch, 235823 bytes, 18 tensors)

mlp.0.0.weight f4 [128, 16]
0	0xbe19eb51	-0.15031172
1	0x3ee0e7a9	0.43926743
2	0xbf06016d	-0.52345926
3	0x3bce5968	0.006297279
4	0xbd886225	-0.066593446
5	0xbddd715c	-0.10812637
6	0x3e8f9abb	0.28047737
7	0xbef7e0a3	-0.48413572
8	0xbd988df5	-0.07448951
9	0xbe5529f2	-0.20816782
10	0xbee869ac	-0.4539312
11	0x3e7000a4	0.23437744
12	0xbf0a8f89	-0.5412527
13	0xbe889f46	-0.26684016
14	0xbe8eaaf0	-0.2786479
15	0x3e958f42	0.2921086
16	0x3f08eb45	0.5348399
17	0xbe9221e5	-0.28541484
18	0x3e9bce1b	0.30430683
19	0x3eb1f3e1	0.34756377
20	0xbebbca0c	-0.36677587
21	0xbd1b55cb	-0.037923615
22	0xbe0c89dd	-0.13724466
23	0xbe2d6c45	-0.16935833
24	0x3e90085d	0.2813138
25	0xbe82f0c5	-0.25574318
26	0xbee7b044	-0.45251667
27	0x3e55942e	0.20857307
28	0xbd15bfe7	-0.036559965
29	0x3cbccf8e	0.023048189
30	0xbdb5ecfa	-0.0888309
31	0xbf0eee9f	-0.55832857
32	0x3f86a67e	1.0519559
33	0xbe57bc61	-0.21067955
34	0xbda5841b	-0.08081838
35	0x3e3f8112	0.1870158
36	0x3b2322f0	0.002489265
37	0x3e0ff925	0.14059885
38	0x3c7f3794	0.015577216
39	0x3e4f4c70	0.20244002
40	0x3f1b0a74	0.60562825
41	0xbf1d632a	-0.6147944
42	0xbe680b45	-0.22660549
43	0xbd601ba9	-0.05471388
44	0xbdf15f71	-0.11785782
45	0x3e607338	0.21918952
46	0x3d914e4a	0.070950106
47	0xbf1b68f6	-0.6070703
48	0xbd8263aa	-0.06366666
49	0xbe1b575f	-0.15170048
50	0x3eb17e24	0.3466655
51	0xbda43bb8	-0.08019203
52	0xbdb32cd2	-0.08748783
53	0xbd033682	-0.032034405
54	0xbe5a16c1	-0.21297742
55	0x3cfc4881	0.030796291
56	0x3e9ca778	0.3059652
57	0xbedb05e3	-0.4277793
58	0x3d77c1c4	0.060487524
59	0x3dde11f7	0.1084327
60	0x3f033742	0.5125619
61	0x3ee7a09d	0.45239726
62	0x3f0cc005	0.549805
63	0xbdd9e9bf	-0.10640287
64	0xbe8a6ccc	-0.2703613
65	0xbe273470	-0.16328597
66	0x3e9363f8	0.28787208
67	0x3d7e92d7	0.062151756
68	0x3e8416c8	0.2579863
69	0x3e240a3a	0.16019526
70	0x3e10ab39	0.14127816
71	0x3d8cd1da	0.068759635
72	0x3d7ad61d	0.06123935
73	0x3e8b5b0e	0.27217907
74	0x3dc1a6e5	0.09455661
75	0xbe73c386	-0.23805055
76	0x3e5f877f	0.21829031
77	0x3e092273	0.13392048
78	0x3ee9c9af	0.45661685
79	0x3cb0783e	0.021541711
80	0xbcc631d8	-0.02419369
81	0x3d9d3de5	0.07677821
82	0xbd92ff55	-0.07177607
83	0xbd079d2b	-0.03310887
84	0x3e0b3f32	0.13598326
85	0x3d6a6569	0.05722562
86	0x3e3b6722	0.18301061
87	0xbe436f0a	-0.19085327
88	0xbe1c5e04	-0.15270239
89	0xbe2bdd58	-0.16783655
90	0xbe41110a	-0.18854156
91	0xbe64db1f	-0.22349213
92	0x3b510996	0.0031896583
93	0xbe208257	-0.1567472
94	0xbe78cf0d	-0.24297734
95	0xbe74cc62	-0.23906091
96	0x3e9c9bfc	0.30587757
97	0xbe707a37	-0.23484121
98	0x3e234abe	0.1594648
99	0xbe269c91	-0.16270663
100	0xbd4dac59	-0.05021319
101	0xbdc32295	-0.095280804
102	0xbeb1f131	-0.34754327
103	0xbda27961	-0.079333074
104	0x3eb445e0	0.3520956
105	0xbf0e2a21	-0.55533034
106	0xbe2ecf86	-0.17071351
107	0x3e125f61	0.14294197
108	0xbe924e78	-0.28575492
109	0xba61b76a	-0.00086103997
110	0xbd1d154b	-0.038350385
111	0xbe3198ec	-0.17343491
112	0xbe6e7125	-0.23285349
113	0xbdb0d121	-0.08633638
114	0x3cea5737	0.02860604
115	0xbdc5165b	-0.096234046
116	0x3d69e4c0	0.05710292
117	0xbdbbf8c7	-0.0917831
118	0xbdf65016	-0.12026994
119	0xbbc820db	-0.0061074323
120	0x3da4190a	0.08012588
121	0xbdf03841	-0.117294796
122	0x3e2b1c76	0.16710076
123	0x3c89f4f6	0.01684044
124	0xbdfa922f	-0.122349136
125	0xbb76c849	-0.0037656
126	0x3e49e775	0.197172
127	0x3dd9d1e1	0.10635734
128	0xb9c73efa	-0.0003800316
129	0xbe7b08a1	-0.2451501
130	0x3ec4b638	0.38420272
131	0x3eb75269	0.3580506
132	0xbe97701f	-0.2957773
133	0x3e2c7140	0.16840076
134	0xbe19b16f	-0.15009092
135	0x3e0b5683	0.1360722
136	0x3e3f88af	0.18704484
137	0x3ee302d1	0.44338086
138	0x3d20c998	0.039254755
139	0xbe00a72c	-0.12563771
140	0x3eb9f523	0.36319837
141	0x3d8b5961	0.06804157
142	0x3eb174e1	0.34659484
143	0xbe9f5858	-0.31122088
144	0xbe467d52	-0.19383743
145	0xbea17ea8	-0.31541944
146	0x3de06987	0.10957628
147	0x3e58f63f	0.21187685
148	0xbe799d50	-0.24376416
149	0x3d26807d	0.04064988
150	0x3b374c30	0.0027968995
151	0x3db3d26c	0.08780369
152	0x3dfc4d4d	0.123194315
153	0x3f182254	0.5942738
154	0x3eb84287	0.35988256
155	0xbdec3548	-0.115336
156	0x3da1323d	0.0787091
157	0xbe42ed40	-0.19035816
158	0x3e4c677d	0.19961353
159	0xbee6dbdb	-0.4508961
160	0x3d57ba1e	0.05266773
161	0xbdc29e7b	-0.09502884
162	0x3e1ad871	0.15121628
163	0xbd59af6e	-0.05314582
164	0x3dcfcf76	0.10146992
165	0x3e4fecb6	0.20305142
166	0x3e04a7fd	0.12954707
167	0x3dac79c1	0.0842166
168	0xbe2bd0f9	-0.16778935
169	0x3d920ae3	0.07130983
170	0xbd6060ef	-0.054779943
171	0xbdbf1b47	-0.093313746
172	0x3e442036	0.19152912
173	0x3e1675d0	0.1469338
174	0xbe27184c	-0.16317862
175	0xbcbf4643	-0.023348933
176	0xbea10ee8	-0.31456685
177	0xbef93c42	-0.48678786
178	0xbcad612c	-0.0211645
179	0xbe2d94cf	-0.16951297
180	0xbe0986c1	-0.13430311
181	0x3e063de8	0.13109553
182	0xbdaafae7	-0.08348637
183	0x3c8225b8	0.015887126
184	0x3e7a0c3c	0.2441873
185	0x3ec92087	0.3928263
186	0x3d6d58f9	0.05794618
187	0x3d61f189	0.055161987
188	0x3e6886f1	0.22707726
189	0xbe5f963e	-0.21834657
190	0xbe59d8e0	-0.21274137
191	0xbe2bfcfc	-0.16795725
192	0x3ef12d71	0.47104982
193	0x3e7e1f93	0.24816732
194	0x3e48c8b5	0.19607814
195	0xbe0447ed	-0.12918063
196	0xbdd1673b	-0.10224768
197	0x3e57349e	0.21016166
198	0xbe49168a	-0.19637504
199	0xbd3cc3a5	-0.04608502
200	0x3dfc7426	0.12326841
201	0xbebf34cc	-0.37344968
202	0xbd4913b0	-0.04909104
203	0xbdd02519	-0.10163326
204	0xbc9bfd51	-0.01904169
205	0x3e13f849	0.14450182
206	0xbeb254ee	-0.3483042
207	0xbe48bd59	-0.1960348
208	0xbe0f043a	-0.13966456
209	0xbeabf887	-0.3358805
210	0x3e8a6496	0.27029866
211	0x3e2a05eb	0.1660382
212	0xbdd7d97a	-0.10539527
213	0x3e4afc2a	0.19822755
214	0x39661b05	0.00021944575
215	0xbd80c259	-0.06287069
216	0xbdb8a349	-0.09015519
217	0x3e9eeafd	0.31038657
218	0xbdc09282	-0.09402944
219	0xbe860923	-0.26178846
220	0x3e89c52a	0.26908237
221	0x3e1d0aa4	0.1533609
222	0x3ec8fd4e	0.39255756
223	0x3e04975f	0.12948368
224	0xbe79acbe	-0.24382302
225	0x3ed3c7d2	0.41363388
226	0xbee2f56d	-0.4432787
227	0xbef0456e	-0.4692797
228	0xbdcfd6cc	-0.10148391
229	0xbc921133	-0.017830467
230	0x3be0f067	0.0068645957
231	0xbe682292	-0.22669438
232	0x3d67ab1a	0.05655966
233	0xbebf0b5a	-0.37313348
234	0x3d44c670	0.048040807
235	0x3ebf7497	0.37393638
236	0x3ead47c8	0.33843827
237	0x3e95e301	0.29274753
238	0x3c8f10c7	0.017464055
239	0x3ce9a16a	0.028519351
240	0x3e3e8608	0.18605816
241	0xbe3b0970	-0.18265319
242	0xbe5bc335	-0.21461184
243	0xbe334a2b	-0.17508762
244	0xbe369f5a	-0.17834225
245	0xbdf2271e	-0.11823867
246	0x3e6c3a4e	0.23069116
247	0xbd926c4f	-0.071495645
248	0xbd6edd60	-0.05831659
249	0xbe26c268	-0.16285098
250	0xbda08b92	-0.07839121
251	0x3e4d7f07	0.20067988
252	0x3e062f96	0.1310409
253	0xbe105e1d	-0.14098401
254	0xbd472e64	-0.048628226
255	0xbd801270	-0.06253517

mlp.0.0.bias f4 [128]
0	0x3d8a5112	0.06753744
1	0x3da02795	0.0782005
2	0xbcfc4b79	-0.030797707
3	0x3e6e9189	0.23297705
4	0x3dda7eca	0.10668714
5	0xbe4fe4fe	-0.20302197
6	0x3dbd3407	0.09238439
7	0xbe27c948	-0.16385376
8	0x3e696565	0.22792585
9	0x3d7d4777	0.061835732
10	0xbdeb18d5	-0.11479346
11	0xbd92046c	-0.0712975
12	0x3dab151b	0.08353635
13	0x3da123b2	0.078681365
14	0x3e6db157	0.23212181
15	0xbe471759	-0.194425
16	0x3d87208e	0.06598006
17	0x3ddc57f5	0.10758964
18	0x3d3c8f30	0.04603499
19	0x3e88ee2e	0.26744217
20	0x3caa39ad	0.020779455
21	0x3d0914e9	0.033467207
22	0x3e7f5989	0.24936499
23	0x3d0e162b	0.03468911
24	0xbd86426c	-0.06555638
25	0x3e73e3ff	0.23817442
26	0x3d3964c4	0.045262113
27	0x3e64740d	0.22309895
28	0x3cbb08d8	0.022831365
29	0x3d813216	0.06308381
30	0x3e05d71f	0.13070343
31	0xbe2a5447	-0.16633712
32	0x3e1620d9	0.14660968
33	0x3dac1c66	0.08403854
34	0x3db038aa	0.08604558
35	0x3e87ff32	0.26561886
36	0x3d51a2e8	0.05118075
37	0x3d723ec9	0.059141908
38	0x3e4f6057	0.20251594
39	0xbcba8200	-0.022767067
40	0x3dcf9e54	0.101376206
41	0xbe77a094	-0.2418235
42	0x3d0562f0	0.032565057
43	0x3e86ebf2	0.26351887
44	0x3e450a61	0.1924224
45	0x3bb2be6b	0.0054548285
46	0x3e090649	0.13381304
47	0x3ddb0684	0.10694602
48	0xbbc45e0d	-0.005992657
49	0xbc4b48de	-0.01240751
50	0xbe53abb9	-0.20670976
51	0x3d5803af	0.052737888
52	0x3da8cc73	0.082421206
53	0x3e1b3928	0.15158522
54	0x3e8a1a21	0.2697306
55	0x3e021466	0.12703094
56	0xbd165682	-0.036703594
57	0xbe3cdebe	-0.18444344
58	0xbda89ff7	-0.08233636
59	0x3e4f328c	0.20234126
60	0x3db8da56	0.09026019
61	0xbe3ee15c	-0.18640655
62	0x3cfb8ff9	0.0307083
63	0x3de23539	0.11045308
64	0xbc9d7552	-0.019220982
65	0xbbe21df1	-0.006900542
66	0x3c38e00a	0.011283884
67	0xbddb41fa	-0.107059434
68	0x3e6b5dd4	0.22985011
69	0xbe60db2d	-0.21958609
70	0x3d5c2a27	0.053751137
71	0x3d2888a4	0.041145936
72	0x3e68328a	0.22675529
73	0x3e354a38	0.17704093
74	0x3e4959c8	0.19663155
75	0x3d91a449	0.07111413
76	0x3e096871	0.13418747
77	0xbe799ef2	-0.24377039
78	0x3c9d95cd	0.01923647
79	0xbd9a50d4	-0.07534948
80	0x3e60aa43	0.2193995
81	0x3e4ed9e9	0.20200314
82	0x3d838853	0.06422486
83	0x3d9735d5	0.073833145
84	0x3e43b2b7	0.19111143
85	0x3cd05aca	0.025433917
86	0x3e39bb35	0.1813782
87	0x3dcb52bf	0.09927892
88	0x3de2b7b2	0.11070193
89	0x3d7c7a4e	0.061640076
90	0x3e6df264	0.23236996
91	0x3d7ce711	0.0617438
92	0xbd685e4b	-0.05673055
93	0x3e617c90	0.22020173
94	0x3e6a215d	0.2286429
95	0x3e72a344	0.23695093
96	0x3c49a1d9	0.012306654
97	0x3d56fad0	0.052485287
98	0x3d0576e4	0.032584086
99	0x3d060802	0.03272248
100	0x3dc5d601	0.09659959
101	0x3e0d0052	0.13769653
102	0x3e89e0e6	0.26929396
103	0xbd241331	-0.040057365
104	0x3dc73c7e	0.09728335
105	0xbe6d4eb6	-0.23174557
106	0xbe40e27a	-0.18836394
107	0x3e3e7c24	0.18602043
108	0x3e2664b2	0.1624935
109	0x3dfb7952	0.122789994
110	0xbe4b0336	-0.19825444
111	0x3e3b825d	0.18311448
112	0xbe1b0f62	-0.15142587
113	0x3d23999e	0.039941423
114	0x3d59264c	0.05301504
115	0xbd8e6f95	-0.06954876
116	0x3e2b8a36	0.16751942
117	0x3d85a1dc	0.06525013
118	0xbe55f550	-0.2089436
119	0x3e35242a	0.17689577
120	0x3e84398b	0.25825152
121	0x3d416868	0.04721871
122	0x3e6dc5ae	0.2321994
123	0x3d8640be	0.06555317
124	0x3e831411	0.25601247
125	0x3d4a760e	0.049428992
126	0x3d95392a	0.07286294
127	0xbdea86e0	-0.114515066

mlp.1.0.weight f4 [128, 128]
0	0x3dd6fcfc	0.10497472
1	0x3d8d1ac9	0.068898745
2	0x3e163a9b	0.14670794
3	0x3d30f18e	0.043199115
4	0xbcc8c96d	-0.02451011
5	0x3d651b53	0.05593426
6	0x3c104b8c	0.008807074
7	0x3c02c587	0.0079816645
8	0x3cf1428b	0.029450675
9	0x3d0dd999	0.034631345
10	0x3c48d5e5	0.012258028
11	0x3d3a7ba4	0.04552807
12	0xbb2dc5c7	-0.002651559
13	0xbbc17f5d	-0.0059050755
14	0x3dcab69d	0.09898112
15	0x3c0f85bc	0.008759912
16	0xbd07fde0	-0.0332011
17	0x3de17aef	0.11009776
18	0x3ded0981	0.11574078
19	0x3cfaca8a	0.030614156
20	0x3ca028be	0.019550677
21	0x3bb26f3a	0.005445388
22	0x3e0b5388	0.13606083
23	0xbd9caab5	-0.07649747
24	0x3d0c3e5a	0.03423915
25	0x3e1536fa	0.14571753
26	0x3e53bc3d	0.20677276
27	0x3d9cb605	0.07651905
28	0x3deab889	0.114609785
29	0xbd887b62	-0.066641584
30	0x3d39575b	0.045249324
31	0x3d28de1b	0.04122744
32	0xbcdd1318	-0.026986644
33	0xbda96a47	-0.08272224
34	0xbb1d091b	-0.0023961726
35	0xbc9064e3	-0.017626232
36	0xbd1f4a6e	-0.03888934
37	0xbd870f00	-0.06594658
38	0x3da78e9e	0.08181499
39	0xbbcf1bd1	-0.0063204546
40	0xbd4253ba	-0.04744313
41	0x3d989334	0.07449952
42	0x3da27ff2	0.0793456
43	0xbdc6cb1d	-0.097067095
44	0xbc8cb7ad	-0.017177427
45	0x3d86cf4d	0.06582508
46	0x3dfb927d	0.122838
47	0xbce22dfd	-0.02760982
48	0xbc0c6dd5	-0.008571108
49	0xbdfd18a3	-0.12358215
50	0xbd29de93	-0.04147203
51	0x3ddccd4e	0.10781346
52	0x3da9cf4a	0.082914904
53	0x3d838bd9	0.06423158
54	0x3d7f590b	0.062340777
55	0x3c03af29	0.008037367
56	0x3da00b20	0.07814622
57	0xbd0b335d	-0.03398453
58	0x3dde3250	0.1084944
59	0xbc7e6af6	-0.015528431
60	0x3e20348f	0.1564505
61	0xbd7f5c3e	-0.06234383
62	0xbd6e9f7c	-0.058257565
63	0x3d555ff4	0.05209346
64	0x3e07dbb4	0.13267404
65	0xbd0266fc	-0.031836495
66	0x3f42aae4	0.7604201
67	0x3d7a995a	0.061181404
68	0x3d8f238d	0.06989203
69	0xbd87549d	-0.066079356
70	0xbda9b05c	-0.08285591
71	0xbde04ffd	-0.109527566
72	0x3d436d28	0.04771152
73	0xbdc96b46	-0.09834914
74	0xbcd9e76e	-0.026599612
75	0xbcac6068	-0.021042064
76	0x3c98dd06	0.01866008
77	0xbd704bc0	-0.05866599
78	0x3dd93bce	0.1060711
79	0x3df9a8c9	0.12190396
80	0xbd19c026	-0.037536763
81	0xbd619d54	-0.05508168
82	0xbb969b74	-0.004596168
83	0xbc4bff9e	-0.012451081
84	0x3d154883	0.036446106
85	0x3dc3faf6	0.095693514
86	0x3c25f89b	0.010130073
87	0x3dae5c04	0.08513644
88	0x3e03c1cf	0.12866901
89	0xbdc9fbec	-0.098625034
90	0x3da25f09	0.07928283
91	0x3e2d22cf	0.1690781
92	0x3ccd686b	0.025074204
93	0x3d9bd5fd	0.076091744
94	0x3c2f91b1	0.010715888
95	0xbd3cf6fc	-0.04613398
96	0x3e1f68f5	0.15567382
97	0xbdbf6b10	-0.093465924
98	0xbb624b34	-0.0034529688
99	0x3e707791	0.23483111
100	0x3d7c9ea6	0.061674736
101	0xbbdaae59	-0.006673616
102	0x3dcb2881	0.09919835
103	0x3c601b45	0.013678377
104	0xbca693b5	-0.020334104
105	0x3dab4996	0.08363645
106	0xbcdeb8a0	-0.027187645
107	0x3d221697	0.039572325
108	0x3c587d45	0.01321346
109	0x3e202347	0.15638457
110	0xbd6cadf1	-0.05778307
111	0xbd45dc86	-0.04830601
112	0xbd292afa	-0.04130075
113	0x3e0b7228	0.13617766
114	0x3cab095d	0.020878488
115	0x3d02cf22	0.03193582
116	0xbc7f96ea	-0.015599946
117	0x3bc0f3b7	0.005888428
118	0xbccd044b	-0.025026461
119	0xbc418a36	-0.011812737
120	0x3d9b8c1e	0.075950846
121	0x3e94f8c3	0.2909604
122	0x3b13d6bf	0.0022558419
123	0x3da26aca	0.07930525
124	0x3c80ea11	0.015736612
125	0xbd74f894	-0.059807375
126	0x3d8de991	0.06929315
127	0x3cb07d95	0.021544257
128	0x3db426eb	0.087964855
129	0xbadbeac6	-0.0016778342
130	0xc030dfc0	-2.7636566
131	0x3cc33288	0.023827806
132	0xbd7aea3a	-0.061258532
133	0xbcb3440c	-0.021883033
134	0xbd4509bc	-0.048104987
135	0xbd20b9b1	-0.03923959
136	0x3b83b95d	0.0040198998
137	0x3cedb6a9	0.029017763
138	0x3c328731	0.01089649
139	0x3e3692e5	0.17829473
140	0x3d8f824b	0.07007273
141	0x3dbc5e74	0.09197703
142	0xbd6ab924	-0.05730547
143	0x3d1253d8	0.03572449
144	0x3d116de9	0.03550521
145	0x3d963c05	0.073356666
146	0x3d87b261	0.0662582
147	0x3d194496	0.037418924
148	0xbd74c050	-0.059753716
149	0xbb569e3a	-0.003274812
150	0xbc85b565	-0.016321847
151	0x3e9dd4c5	0.30826393
152	0xbde0cb21	-0.10976244
153	0xbe01e79b	-0.12686007
154	0xbd03ff6d	-0.032226015
155	0xbd94236a	-0.07233317
156	0x3d12d136	0.03584405
157	0x3d85a68f	0.06525909
158	0xbe59b9d9	-0.21262302
159	0xbe44bda3	-0.19212966
160	0xbd8e619b	-0.069522105
161	0xbe474e39	-0.19463433
162	0xbda7c290	-0.08191407
163	0x3cdac496	0.026705068
164	0x3e12a63f	0.1432123
165	0x3c50e6fd	0.012750384
166	0xbdfdf883	-0.124009155
167	0xbe31c0eb	-0.17358749
168	0x3c1b4f66	0.009479379
169	0xbd4c5817	-0.049888697
170	0x3db12174	0.08648959
171	0x3d00e6f9	0.031470273
172	0xbd15929a	-0.036516763
173	0xbe4739c8	-0.19455636
174	0x3e14e01c	0.14538616
175	0xbe51051f	-0.2041211
176	0xbd57ad5c	-0.052655563
177	0x3b011f35	0.0019702439
178	0x3d1e6eb2	0.038679786
179	0xbdd6e9ad	-0.10493789
180	0x3e3f40e7	0.18677102
181	0x3d0cd7cb	0.034385484
182	0x3d804933	0.06263962
183	0xbbb1a26c	-0.0054209735
184	0x3d0b0106	0.033936523
185	0xbd7721f8	-0.06033513
186	0xbe00adb5	-0.12566264
187	0x3c18aaab	0.009318034
188	0xbedb105d	-0.42785922
189	0xbd1aafab	-0.037765186
190	0x3d137658	0.036001533
191	0xbda799c9	-0.08183629
192	0x3ca63bf2	0.020292256
193	0x3e3cf6d5	0.18453534
194	0xbe4e1edf	-0.20128964
195	0x3e727980	0.23679161
196	0x3e192ed2	0.14959267
197	0xbd59607d	-0.053070534
198	0x3eccaf5b	0.39977536
199	0x3e54f171	0.20795228
200	0xbd426b8d	-0.04746585
201	0x3d64930d	0.0558043
202	0x3d96eb98	0.07369155
203	0x3d2dd93b	0.042443495
204	0x3d5555d2	0.052083798
205	0xbcdad368	-0.026712134
206	0x3d3cf411	0.046131197
207	0xbcb2d307	-0.021829141
208	0x3d8398f4	0.06425658
209	0xbda8973d	-0.082319714
210	0x3bd48889	0.006486003
211	0x3d0e1ba7	0.03469434
212	0xbe14bc29	-0.14524902
213	0xbe4e7d15	-0.20164903
214	0x3c499fcf	0.012306168
215	0x3db872f2	0.09006299
216	0xbdf4dbf3	-0.119560145
217	0x3e4a0867	0.19729768
218	0xbd1ee4a7	-0.03879228
219	0xbf0cf8d0	-0.5506716
220	0x3d04826a	0.032350935
221	0x3dc89d21	0.09795595
222	0xbd4b98ef	-0.049706396
223	0xbc81ac76	-0.015829306
224	0x3d2d7ca0	0.04235518
225	0x3ebc9eac	0.36839807
226	0xbc47cfa6	-0.012195503
227	0xbe121e4d	-0.14269371
228	0xbe278be8	-0.16361964
229	0x3dafe912	0.085893765
230	0xbc87a0c4	-0.016556151
231	0x3e264d2c	0.16240376
232	0x3e33e372	0.17567232
233	0x3c10892c	0.008821767
234	0xbbf4e97a	-0.0074741216
235	0xbd03b133	-0.032151412
236	0xbd081c02	-0.033229835
237	0xbd1c368f	-0.03813797
238	0x3d145f7e	0.03622388
239	0x3e286dbc	0.1644811
240	0xbd8a7712	-0.06760992
241	0xbf115250	-0.56766224
242	0xbe148c09	-0.14506544
243	0xbe3e7c69	-0.18602146
244	0xbd474de9	-0.048658285
245	0x3dc335a2	0.09531714
246	0x3d27c470	0.04095882
247	0x3deee0a6	0.11663942
248	0x3c8e7afd	0.01739263
249	0xbc170de6	-0.009219622
250	0x3d2b7018	0.041854948
251	0x3d62381e	0.0552293
252	0x3da8f030	0.08248937
253	0x3dccd804	0.10002139
254	0x3d9a0376	0.07520191
255	0x3c7d738c	0.015469443

mlp.1.0.bias f4 [128]
0	0xbd3474ff	-0.04405689
1	0x3d2fab71	0.04288811
2	0x3d827b5e	0.06371187
3	0xbdb4a8dc	-0.0882127
4	0xbc1d0346	-0.0095833
5	0x3c86dd3f	0.01646292
6	0xbc2f0015	-0.010681172
7	0xbc969c4d	-0.018385077
8	0x3d176bc9	0.036968026
9	0x3d07cc06	0.033153556
10	0xbd920195	-0.07129208
11	0x3c42388c	0.011854302
12	0xbd820e0d	-0.06350336
13	0x3db5156f	0.08841979
14	0x3d8dd1d7	0.069247894
15	0xbc6a455f	-0.014298766
16	0xbcb8b2c4	-0.02254618
17	0xbd9b2fa2	-0.075774446
18	0x3da55e87	0.0807467
19	0x3dabe7c1	0.08393813
20	0x3bc62cf7	0.0060478407
21	0xbc5e03f2	-0.013550745
22	0x3c92f71f	0.017940102
23	0x3d27018c	0.04077296
24	0xbbcbb943	-0.0062171533
25	0xbd9933e5	-0.07480601
26	0xbaf9eee9	-0.0019068393
27	0x3d8cec87	0.068810515
28	0x3dc50a7f	0.096211426
29	0xbd36bced	-0.044613767
30	0x3dbcb2a9	0.09213764
31	0xb9980ef7	-0.0002900285
32	0x3d9e685d	0.077347495
33	0x3d032df2	0.03202624
34	0xbd6d79a9	-0.057977352
35	0xbc88ac36	-0.01668368
36	0x3d10bd04	0.03533651
37	0x3baaba64	0.005210208
38	0xbd097702	-0.03356076
39	0xbd547099	-0.051865194
40	0x3c5531df	0.0130123785
41	0x3d159606	0.036520027
42	0xbdbb23f2	-0.091377154
43	0x3d18382b	0.03716294
44	0x3d1e882e	0.03870409
45	0xbc73c846	-0.014879292
46	0x3de46c0f	0.11153423
47	0xbc40d00f	-0.011768355
48	0x3c824420	0.015901625
49	0x3c5d719c	0.013515856
50	0x3d07943c	0.03310035
51	0x3d12724e	0.03575354
52	0x3d94adb2	0.07259692
53	0x3d535b95	0.05160101
54	0x3da16e50	0.078823686
55	0xbd8db024	-0.06918362
56	0x3ce84e89	0.028357761
57	0x3c87205e	0.016494926
58	0xbd712d93	-0.058881354
59	0x3db23ecb	0.08703383
60	0x3cd9c1fc	0.026581757
61	0xbd1c1b52	-0.038111992
62	0x3daca980	0.08430767
63	0x3d76dfc2	0.060271986
64	0xbc896a39	-0.016774284
65	0xbb640e1f	-0.0034798456
66	0xbd04db92	-0.03243596
67	0xbc646db1	-0.013942168
68	0x3cfd81bb	0.03094565
69	0x3db364c7	0.08759456
70	0xbce86e54	-0.028372921
71	0x3d42fdc3	0.047605287
72	0x3d9aaf2f	0.07552945
73	0xbc60e5cc	-0.013726663
74	0x3c970147	0.018433226
75	0xbd17a7c3	-0.037025224
76	0xbd96528d	-0.07339964
77	0x3cfae0f1	0.030624839
78	0x3d6030d9	0.054734085
79	0x3dad8aa1	0.08473707
80	0xbd90023d	-0.07031677
81	0xbd70613a	-0.058686472
82	0x3d37f8f6	0.044915162
83	0x3b8d8862	0.0043192366
84	0x3cfb0bea	0.03064533
85	0x3d9ec174	0.07751742
86	0xbcd59f3f	-0.026076911
87	0xbd888af3	-0.066671275
88	0x3c6be174	0.014397014
89	0x3d926597	0.07148283
90	0x3dcbea9a	0.09956856
91	0x3d9850d2	0.0743729
92	0xbd6a7584	-0.057240978
93	0xb9445218	-0.00018722599
94	0xbca34ddb	-0.019934585
95	0x3d0aa978	0.033853024
96	0x3daeb44a	0.08530481
97	0x3d8476d9	0.06467981
98	0x3d94546f	0.07242667
99	0xbd4dba03	-0.050226223
100	0xbd3019b1	-0.04299325
101	0x3d8f06f0	0.06983745
102	0xbd41e1a8	-0.047334343
103	0xbc0c6c4b	-0.008570741
104	0xbd75e22e	-0.060030155
105	0xbd6b638a	-0.057467975
106	0xbd363b84	-0.044490352
107	0xbcdcdaf0	-0.026959866
108	0xbdb20bcc	-0.08693656
109	0xbc95f25a	-0.018304039
110	0xbd156dcd	-0.036481667
111	0xbd23c391	-0.03998143
112	0xbd879c38	-0.06621593
113	0x3d55539f	0.0520817
114	0x3d82573d	0.06364296
115	0x3cdc34f2	0.026880715
116	0x3d408891	0.04700524
117	0xbc0bf9b6	-0.008543422
118	0xbd5cf6a6	-0.05394616
119	0xbc96d7a3	-0.01841337
120	0xbce77319	-0.028253125
121	0xbd99f3da	-0.07517214
122	0x3cbb78d7	0.02288477
123	0x3da3d1eb	0.07999023
124	0xbdac732d	-0.084204055
125	0xbda0967a	-0.07841201
126	0x3b8e5c5f	0.0043445076
127	0xbd81aa63	-0.06331327

mlp.2.weight f4 [4, 128]
0	0x3da6e22d	0.08148608
1	0xbf47ba4b	-0.78018636
2	0xbdb1d21a	-0.08682652
3	0x3c966f7d	0.018363709
4	0xbdc07992	-0.09398188
5	0xbd8ee135	-0.069765486
6	0x3e46d301	0.19416429
7	0x3c5aeae5	0.013361667
8	0xbed5f868	-0.4179108
9	0xbd8d3b09	-0.06896026
10	0xbd0bfd6e	-0.034177236
11	0xbe7a54ac	-0.24446362
12	0x3cfe53df	0.031045852
13	0xbe8593a6	-0.2608921
14	0xbeb61f66	-0.3557083
15	0xbda00ea3	-0.07815292
16	0xbe2e9e73	-0.17052631
17	0x3ead318e	0.3382687
18	0x3e78c679	0.24294461
19	0xbe15e55b	-0.14638273
20	0xbb244459	-0.0025065152
21	0x3db3d506	0.08780865
22	0x3e4a51fe	0.1975784
23	0xbe54ab16	-0.20768389
24	0x3e20fd27	0.1572157
25	0xbd87e6f0	-0.06635845
26	0xbd04c691	-0.03241593
27	0xbd8057ae	-0.062667236
28	0xbd6de053	-0.05807526
29	0x3e9fb59a	0.31193238
30	0xbe776177	-0.24158274
31	0x3e82ab4b	0.2552131
32	0xbdfb8fee	-0.12283312
33	0x3dc1878e	0.09449683
34	0xbad8bcf5	-0.0016535806
35	0x3e9f06ef	0.31059977
36	0x3e558c05	0.20854194
37	0x3f696fa2	0.91185963
38	0x3f47ffed	0.78124887
39	0xbea2c947	-0.31794187
40	0x3d336ce0	0.043805003
41	0x3ec4d92a	0.38446933
42	0xbd15ef45	-0.03660514
43	0xbcaef50f	-0.021357087
44	0xbe167559	-0.14693202
45	0xbf2dfad8	-0.6796088
46	0xbc62cce0	-0.013842791
47	0xbad90733	-0.0016557932
48	0x3e612ed5	0.21990521
49	0x3d121e69	0.035673533
50	0x3d55a466	0.052158736
51	0x3e2afb8f	0.16697524
52	0xbeb259b3	-0.3483406
53	0x3d88a161	0.066714056
54	0x3be7af28	0.007070441
55	0xbd72fcbc	-0.059323058
56	0xbe5115b4	-0.20418435
57	0x3eaa880e	0.33306926
58	0x3ea949b8	0.33064055
59	0xbcfd1f2c	-0.030898653
60	0x3f22a771	0.63536745
61	0xbe2d1629	-0.16902985
62	0xbee39b26	-0.44454306
63	0xbe6b37c5	-0.22970493
64	0x3d772c46	0.060344957
65	0x3e1c404d	0.15258904
66	0xbcb391e5	-0.021920154
67	0xbe28bf34	-0.16479188
68	0xbd06db03	-0.03292371
69	0x3ebc0b9a	0.367276
70	0xbdb33627	-0.08750563
71	0xbda39e14	-0.079891354
72	0x3dc21c64	0.09478071
73	0x3d0b79b9	0.03405163
74	0xbe0f94ab	-0.14021556
75	0xbe5801bf	-0.21094416
76	0xbda2631f	-0.07929062
77	0xbaf8ba89	-0.001897649
78	0x3e2791d4	0.16364223
79	0x3c2dae7e	0.010600684
80	0xbd981c7f	-0.0742731
81	0x3d772742	0.060340174
82	0xbe3d4bfd	-0.18486018
83	0x3cf35b71	0.029706689
84	0xbe2e310c	-0.17010897
85	0xbc364121	-0.011123926
86	0x3eb4955a	0.35270196
87	0xbd9fdd2a	-0.078058556
88	0xbe585df9	-0.21129598
89	0x3e1a2bf1	0.15055825
90	0xbdd74a58	-0.10512227
91	0x3d8b5b93	0.06804576
92	0xbebbc0b3	-0.36670455
93	0xbe07972b	-0.1324126
94	0x3cd00682	0.025393728
95	0xbd3c3a71	-0.04595417
96	0x3e0d4db5	0.13799174
97	0x3f3c0465	0.73444206
98	0xbde741c2	-0.11291839
99	0x3ed2fb48	0.41207337
100	0xbebac0cf	-0.36475226
101	0xbe24a2cb	-0.16077726
102	0xbef5fb62	-0.48043352
103	0x3f12c289	0.5732809
104	0xbbea7c1e	-0.007155909
105	0x3d457623	0.048208367
106	0xbd92145d	-0.0713279
107	0x3d524520	0.051335454
108	0xbd7ba4c9	-0.06143645
109	0x3c55b5be	0.013043819
110	0x3ef3fa3c	0.4765185
111	0xbf2d940b	-0.6780402
112	0xbd89ca7a	-0.067280725
113	0xbe43b9b2	-0.19113806
114	0x3dc3e1c0	0.09564543
115	0xbe72f452	-0.23726013
116	0xbb51cdc1	-0.0032013508
117	0x3d01cbf3	0.03168864
118	0x3e2e42a3	0.17017607
119	0xbe3ffd40	-0.18748951
120	0x3e35cb6a	0.17753378
121	0xbd9523b0	-0.072821975
122	0xbc36deb0	-0.011161491
123	0xbd1ad554	-0.0378011
124	0x3da08238	0.07837337
125	0x3d4534b2	0.048145957
126	0xbc664e08	-0.01405669
127	0x3d6055dc	0.054769382
128	0xbd8cb593	-0.0687057
129	0x3eda950b	0.42691836
130	0xbd893e35	-0.06701318
131	0xbd6cb5f5	-0.057790715
132	0xbe600c7a	-0.2187976
133	0x3cfb5efc	0.03068494
134	0x3e2a3272	0.16620806
135	0x3da213d6	0.0791394
136	0xbc1ca04d	-0.009559703
137	0x3ed10f17	0.40831825
138	0xbd04e4c3	-0.032444727
139	0x3e8c7cea	0.27439052
140	0x3d23c725	0.03998484
141	0xbe49ac34	-0.19694597
142	0xbdd17e99	-0.10229225
143	0xbe50dca9	-0.20396675
144	0xbe200391	-0.1562636
145	0xbe592286	-0.21204576
146	0xbdd11c59	-0.10210485
147	0x3e1bee7d	0.15227695
148	0x3d8f37fd	0.06993101
149	0x3ead0f45	0.33800712
150	0xbe9a5086	-0.3013956
151	0xbdc4b16c	-0.09604153
152	0xbe5052b2	-0.20344046
153	0xbfa814c9	-1.3131343
154	0x3d27fcf7	0.04101273
155	0xbc9dd3d8	-0.019266054
156	0xbe64d0c9	-0.2234527
157	0x3e3da6ea	0.18520704
158	0xbb228b05	-0.00248021
159	0x3d9c1e67	0.07622986
160	0xbdf2b213	-0.11850371
161	0xbea90612	-0.33012444
162	0xbda59805	-0.08085636
163	0x3e9be489	0.30447796
164	0x3e0598db	0.13046591
165	0x3d934270	0.07190406
166	0xbe893378	-0.2679708
167	0x3e0cf172	0.13763979
168	0x3f268822	0.6505147
169	0xbe87764a	-0.26457435
170	0x3d9d2e36	0.0767483
171	0x3e3df06a	0.18548742
172	0xbe8c7a79	-0.2743719
173	0x3f9aff48	1.2109156
174	0x3e8ee8b1	0.27911904
175	0xbe32b644	-0.17452341
176	0xbe341241	-0.17585088
177	0xbeabd8cf	-0.3356385
178	0xbe38b343	-0.18037133
179	0xbd18f357	-0.037341442
180	0xbe06f604	-0.13179785
181	0x3e9097ab	0.28240713
182	0xbd28107b	-0.041031342
183	0xbcd02d5b	-0.025412252
184	0xbda5574b	-0.080732904
185	0x3e331af9	0.17490758
186	0xbd15bd6b	-0.036557596
187	0xbe39e726	-0.18154582
188	0xbf7c5150	-0.98561573
189	0xbd1cc0b3	-0.03826971
190	0xbe11a88c	-0.14224452
191	0xbdbb7d6e	-0.09154783
192	0x3f768a3e	0.9630469
193	0x3ed252e8	0.41078877
194	0xbc245e99	-0.010032319
195	0x3d9e0531	0.07715834
196	0xbe14b8a9	-0.14523567
197	0xbe05a367	-0.13050614
198	0xbd8052c3	-0.062657855
199	0x3f05bbe8	0.5223985
200	0xbf086aad	-0.53287774
201	0x3df52180	0.1196928
202	0x3ed84354	0.42238867
203	0xbd5b0a2e	-0.053476505
204	0xbd6d1225	-0.057878632
205	0xbe82f0b0	-0.25574255
206	0x3d343ab5	0.0440013
207	0xbe1adb8d	-0.15122814
208	0xbca57daf	-0.020201532
209	0xbfa225c8	-1.266778
210	0xbe3ad662	-0.18245843
211	0x3d9f391d	0.07774565
212	0xbe093d62	-0.13402322
213	0x3e56bea6	0.20971164
214	0xbe0fb29f	-0.14032982
215	0x3d6b6c25	0.05747618
216	0x3d5d7989	0.054070983
217	0x3d14e821	0.036354188
218	0xbe1a259b	-0.15053408
219	0x3d2b5adc	0.041834697
220	0xbc6ee6fd	-0.014581439
221	0xbe80cd7a	-0.25156766
222	0x3d25100c	0.040298507
223	0x3e1c085c	0.15237564
224	0xbe5615ff	-0.20906828
225	0xbe091880	-0.13388252
226	0x3e5b56ee	0.2141988
227	0xbc91074a	-0.017703671
228	0xbd7931ec	-0.060838625
229	0x3bee70ee	0.007276646
230	0xbe847e5a	-0.2587765
231	0xbda757eb	-0.08171066
232	0x3d81e0ba	0.06341691
233	0xbd0433ee	-0.032276087
234	0x3d8beca7	0.06832247
235	0x3b141990	0.0022598244
236	0xbc981d25	-0.018568585
237	0x3e7a631c	0.2445187
238	0x3ef36ddc	0.47544754
239	0x3b9710df	0.0046101655
240	0x3e4515e3	0.1924663
241	0xbe27e308	-0.163952
242	0xbe97fbcd	-0.29684296
243	0xbd6d607e	-0.05795335
244	0x3e7dc072	0.24780443
245	0x3b90d59c	0.0044199955
246	0x3e96e73b	0.2947329
247	0x3d9450cc	0.07241973
248	0x3ca19dc0	0.019728541
249	0x3b10c3a4	0.0022089267
250	0x3dc97efa	0.09838672
251	0x3e4d997a	0.20078078
252	0x3da45c97	0.080254726
253	0xbcea2094	-0.028579988
254	0xbbce1e40	-0.006290227
255	0xbd616aa9	-0.05503336

mlp.2.bias f4 [4]
0	0x3d1afc7e	0.03783845
1	0xbd2c5379	-0.042071793
2	0xbd0b59fb	-0.03402136
3	0xbd15135d	-0.03639542

exp_avg f4 [128, 16]
0	0x34ddcaab	4.1311918e-07
1	0xb5186cf5	-5.6782966e-07
2	0xb430ecf8	-1.6477486e-07
3	0x34e7dce3	4.318782e-07
4	0x35bed796	1.4218847e-06
5	0xb503c515	-4.9088095e-07
6	0xb56575c4	-8.548052e-07
7	0xb580d521	-9.598772e-07
8	0xb571196e	-8.98165e-07
9	0xb4ecde0a	-4.411998e-07
10	0xb54df625	-7.672664e-07
11	0xb43993f8	-1.7283298e-07
12	0x3530f192	6.591664e-07
13	0x35a78823	1.2482091e-06
14	0x356b5339	8.7665427e-07
15	0x35643980	8.502029e-07
16	0xb49fc271	-2.9757533e-07
17	0xb4900276	-2.682388e-07
18	0xb4d16acf	-3.9006997e-07
19	0x34db5fa2	4.086151e-07
20	0xb4788813	-2.3146303e-07
21	0x351fe4c2	5.9565e-07
22	0x34e2cf58	4.2246643e-07
23	0x3295faa8	1.7459868e-08
24	0x3448e261	1.8708808e-07
25	0x3486d0d6	2.5111393e-07
26	0xb368832a	-5.4136002e-08
27	0x34c32406	3.634779e-07
28	0x345ca3ca	2.0548683e-07
29	0xb4edc4ae	-4.4287793e-07
30	0xb42ea2ad	-1.6264194e-07
31	0x34357cc6	1.6902331e-07
32	0xb58cb72c	-1.0484123e-06
33	0xb3416905	-4.503183e-08
34	0xb55600ed	-7.972256e-07
35	0x352d571f	6.45743e-07
36	0xb45e9040	-2.0727839e-07
37	0x35dee2a3	1.6606249e-06
38	0x35fe1e2b	1.8933255e-06
39	0x356baabe	8.7792785e-07
40	0x35c9a1e3	1.5022782e-06
41	0x3581055b	9.612808e-07
42	0x3521362d	6.005601e-07
43	0x358b9444	1.0399458e-06
44	0xb28fdf4a	-1.6748931e-08
45	0xb5c7d384	-1.4888215e-06
46	0xb5a029bd	-1.1933076e-06
47	0xb48daff2	-2.6391314e-07
48	0xb40129bc	-1.2029244e-07
49	0x322dce32	1.0116809e-08
50	0xb3c107bb	-8.988669e-08
51	0x31cb51d8	5.917382e-09
52	0xb409e03e	-1.2840698e-07
53	0x348ba49f	2.6010545e-07
54	0x348bdb11	2.605016e-07
55	0x3418eb86	1.4241786e-07
56	0x346daeca	2.2135933e-07
57	0x340f8a4e	1.3368228e-07
58	0x33d09802	9.713405e-08
59	0x33d243be	9.791209e-08
60	0xb3427ef5	-4.528461e-08
61	0xb4a80760	-3.1297805e-07
62	0xb439d474	-1.7306758e-07
63	0xb3db7c14	-1.0220552e-07
64	0x347a4106	2.330672e-07
65	0x34958a99	2.7854256e-07
66	0x34e6ba51	4.2976401e-07
67	0xb5134215	-5.485793e-07
68	0xb4e945b8	-4.345036e-07
69	0xb53ea9cc	-7.10276e-07
70	0xb4c17816	-3.6036425e-07
71	0xb2f1a8e5	-2.8132897e-08
72	0xb4aa8543	-3.1761928e-07
73	0xb4905c4a	-2.688924e-07
74	0x33c393f7	9.10731e-08
75	0xb4e005e3	-4.1727534e-07
76	0xb4909441	-2.692996e-07
77	0x34b7d674	3.424244e-07
78	0x345313ba	1.9658083e-07
79	0xb4360c4c	-1.6954544e-07
80	0x00000004	6e-45
81	0x00000004	6e-45
82	0x80000004	-6e-45
83	0x80000004	-6e-45
84	0x00000004	6e-45
85	0x80000004	-6e-45
86	0x00000004	6e-45
87	0x80000004	-6e-45
88	0x80000004	-6e-45
89	0x00000004	6e-45
90	0x80000004	-6e-45
91	0x80000004	-6e-45
92	0x80000004	-6e-45
93	0x80000004	-6e-45
94	0x80000004	-6e-45
95	0x00000004	6e-45
96	0xb4b25223	-3.3214846e-07
97	0xb494c2a3	-2.7708765e-07
98	0xb4fefb40	-4.7493995e-07
99	0x3518d20f	5.693009e-07
100	0x338c01b1	6.519566e-08
101	0x3556cca9	8.001903e-07
102	0x34f586b7	4.5732824e-07
103	0x33b5c104	8.4635786e-08
104	0x34b87788	3.435964e-07
105	0x34b298b3	3.3266187e-07
106	0xb38e3535	-6.6220686e-08
107	0x350315c0	4.8832953e-07
108	0x348088b8	2.3941334e-07
109	0xb50a1fd8	-5.1455345e-07
110	0xb49f213f	-2.9640248e-07
111	0x343513b4	1.6864107e-07
112	0x80000004	-6e-45
113	0x80000004	-6e-45
114	0x80000004	-6e-45
115	0x80000004	-6e-45
116	0x00000004	6e-45
117	0x00000004	6e-45
118	0x80000004	-6e-45
119	0x00000004	6e-45
120	0x00000004	6e-45
121	0x80000004	-6e-45
122	0x00000004	6e-45
123	0x80000004	-6e-45
124	0x00000004	6e-45
125	0x00000004	6e-45
126	0x00000004	6e-45
127	0x00000004	6e-45
128	0xb31cdd0e	-3.652263e-08
129	0x3404325e	1.2311781e-07
130	0x33c19a18	9.015292e-08
131	0xb471f86a	-2.2535247e-07
132	0xb4f2490a	-4.5129156e-07
133	0xb3912f48	-6.760689e-08
134	0x33ca0e89	9.409002e-08
135	0x33faf57c	1.16861855e-07
136	0x3358a3b8	5.044032e-08
137	0xb23728d9	-1.066129e-08
138	0x341a2634	1.4356266e-07
139	0xb381964c	-6.0343694e-08
140	0xb4234040	-1.5203932e-07
141	0xb43ece3c	-1.7770157e-07
142	0xb357dbd2	-5.0258514e-08
143	0xb428d023	-1.5721939e-07
144	0xb31ecca6	-3.697337e-08
145	0xb388330a	-6.3422775e-08
146	0xb3587e58	-5.0406328e-08
147	0x33312363	4.1243208e-08
148	0xb539fd36	-6.928634e-07
149	0x335d6e21	5.1555734e-08
150	0xb474b82d	-2.2791274e-07
151	0xb34cb53d	-4.7662287e-08
152	0xb45a8147	-2.0349863e-07
153	0xb27fdeba	-1.4893596e-08
154	0xb3e954e2	-1.0865348e-07
155	0x33823ea4	6.064991e-08
156	0x33216bd0	3.758379e-08
157	0xb469c3c8	-2.1771041e-07
158	0x31c2cf8f	5.66974e-09
159	0x33a4e2d0	7.678102e-08
160	0x00000004	6e-45
161	0x00000004	6e-45
162	0x00000004	6e-45
163	0x80000004	-6e-45
164	0x80000004	-6e-45
165	0x80000004	-6e-45
166	0x80000004	-6e-45
167	0x80000004	-6e-45
168	0x80000004	-6e-45
169	0x80000004	-6e-45
170	0x00000004	6e-45
171	0x80000004	-6e-45
172	0x80000004	-6e-45
173	0x00000004	6e-45
174	0x00000004	6e-45
175	0x80000004	-6e-45
176	0x33a5b299	7.715898e-08
177	0xb41c697a	-1.4567004e-07
178	0xb393eef5	-6.888687e-08
179	0x33bf7c01	8.916687e-08
180	0x331183ef	3.3880436e-08
181	0xb3351737	-4.216346e-08
182	0xb43a3b63	-1.7344205e-07
183	0xb4625471	-2.107861e-07
184	0xb45cdd84	-2.0569684e-07
185	0xb3cece3b	-9.6301356e-08
186	0xb4401854	-1.7890244e-07
187	0xb1ef408c	-6.9631536e-09
188	0x340b31cd	1.2963501e-07
189	0x33fd207c	1.17871394e-07
190	0x3443fe96	1.8253408e-07
191	0x3437e82e	1.712767e-07
192	0xb4475d1e	-1.8567195e-07
193	0xb47d9ec7	-2.3620224e-07
194	0xb4af728e	-3.267964e-07
195	0x34b55505	3.3775737e-07
196	0x32dc17eb	2.5622247e-08
197	0x34f3a43d	4.5381776e-07
198	0x34939248	2.7487317e-07
199	0xb31c459a	-3.6384883e-08
200	0x3413a652	1.3750949e-07
201	0x3415826e	1.3924156e-07
202	0xb394af9c	-6.92373e-08
203	0x3499827c	2.859341e-07
204	0x34560394	1.9931605e-07
205	0xb4987150	-2.8394652e-07
206	0xb3632794	-5.2888552e-08
207	0x342b8037	1.597226e-07
208	0x3465ab05	2.1389504e-07
209	0x349671a3	2.802236e-07
210	0x34e61dc3	4.2862493e-07
211	0xb51c353e	-5.8192006e-07
212	0xb4efe6d4	-4.468517e-07
213	0xb540d6f7	-7.183839e-07
214	0xb4a51723	-3.075048e-07
215	0xb2e6e9fc	-2.6881928e-08
216	0xb49e0b39	-2.943796e-07
217	0xb497ff63	-2.831176e-07
218	0x34126400	1.363369e-07
219	0xb4df459e	-4.158764e-07
220	0xb490af1d	-2.6949502e-07
221	0x34aa8e16	3.176835e-07
222	0x347466bb	2.2761644e-07
223	0xb442e8eb	-1.8152393e-07
224	0xb400e0fb	-1.2002776e-07
225	0xb4174068	-1.4086402e-07
226	0xb486e27f	-2.5124243e-07
227	0x34ae1127	3.2422506e-07
228	0x34aafdcd	3.1849632e-07
229	0x34f48133	4.5542546e-07
230	0x34643174	2.1252146e-07
231	0x333c57d9	4.3852058e-08
232	0x34667578	2.1463154e-07
233	0x34427cc9	1.8113055e-07
234	0xb37df651	-5.9130176e-08
235	0x34770f0f	2.3009146e-07
236	0x3402e048	1.2188787e-07
237	0xb4832a50	-2.4431438e-07
238	0xb4247b7b	-1.5318612e-07
239	0x339e6b9d	7.377023e-08
240	0x80000004	-6e-45
241	0x00000004	6e-45
242	0x00000004	6e-45
243	0x80000004	-6e-45
244	0x00000004	6e-45
245	0x00000004	6e-45
246	0x80000004	-6e-45
247	0x80000004	-6e-45
248	0x00000004	6e-45
249	0x00000004	6e-45
250	0x00000004	6e-45
251	0x80000004	-6e-45
252	0x80000004	-6e-45
253	0x80000004	-6e-45
254	0x00000004	6e-45
255	0x80000004	-6e-45

exp_avg_sq f4 [128, 16]
0	0x2e71ebd0	5.50065e-11
1	0x2e01929e	2.9461426e-11
2	0x2d9e6570	1.8007568e-11
3	0x2e47fc40	4.5471404e-11
4	0x2e54d130	4.8389015e-11
5	0x2f5e7ece	2.0235832e-10
6	0x2f888d02	2.4838448e-10
7	0x2f367ed5	1.6597863e-10
8	0x2f9ec40a	2.8879327e-10
9	0x2ea06086	7.2931036e-11
10	0x2ee3d841	1.0361179e-10
11	0x2e872565	6.145732e-11
12	0x2e1d5557	3.5773464e-11
13	0x2f8a1021	2.5113514e-10
14	0x2f3a5d6d	1.6949793e-10
15	0x2ed6a6b2	9.761204e-11
16	0x2df4556d	2.7777525e-11
17	0x2d41933f	1.1003475e-11
18	0x2d9c8abe	1.779676e-11
19	0x2e0ce2f6	3.2033896e-11
20	0x2d9188cb	1.654534e-11
21	0x2f0777e5	1.2320774e-10
22	0x2eef4529	1.0880747e-10
23	0x2e839a1d	5.984566e-11
24	0x2f04d263	1.2080074e-10
25	0x2e1caa80	3.5621728e-11
26	0x2e167654	3.4211148e-11
27	0x2e30c2d8	4.0190823e-11
28	0x2d60d8a7	1.2781032e-11
29	0x2f00aa00	1.1701928e-10
30	0x2ea0be98	7.309814e-11
31	0x2e0c01d3	3.1833935e-11
32	0x2e2f89f7	3.991293e-11
33	0x2df19f67	2.7469317e-11
34	0x2e929109	6.665075e-11
35	0x2ed77423	9.797698e-11
36	0x2d95fde3	1.7052087e-11
37	0x2f892998	2.494971e-10
38	0x2efe52a6	1.1565264e-10
39	0x2e44b316	4.47243e-11
40	0x2f043ad9	1.2026237e-10
41	0x2e5c2145	5.0051758e-11
42	0x2df00125	2.728535e-11
43	0x2ec08b72	8.7559196e-11
44	0x2de9e1ff	2.6589396e-11
45	0x2f1d3cc0	1.430065e-10
46	0x2e9fa905	7.260507e-11
47	0x2e04a640	3.0160985e-11
48	0x2c312043	2.5171122e-12
49	0x2b9080c0	1.0267551e-12
50	0x2bd3df1a	1.5054375e-12
51	0x2c39d713	2.6409471e-12
52	0x2bede908	1.6904542e-12
53	0x2d3df86f	1.07985695e-11
54	0x2d2d3aa8	9.846936e-12
55	0x2cc252da	5.52301e-12
56	0x2d41dd59	1.1019929e-11
57	0x2c5879c0	3.076303e-12
58	0x2c69aed0	3.3208332e-12
59	0x2c70ff99	3.4247937e-12
60	0x2ba7b555	1.1916393e-12
61	0x2d424730	1.104343e-11
62	0x2ce3e400	6.477041e-12
63	0x2c593f87	3.087282e-12
64	0x2d81e179	1.4765732e-11
65	0x2c93c623	4.199989e-12
66	0x2d272c51	9.502691e-12
67	0x2d66e415	1.3124631e-11
68	0x2ce5f93b	6.5362416e-12
69	0x2e9442d0	6.742129e-11
70	0x2e7bee70	5.7282568e-11
71	0x2dfd8b0d	2.8824521e-11
72	0x2e8a3df6	6.28652e-11
73	0x2da3aff0	1.8609086e-11
74	0x2d8731b9	1.5369804e-11
75	0x2db9d129	2.112495e-11
76	0x2cabd583	4.883817e-12
77	0x2e8831ce	6.193411e-11
78	0x2e20e8d5	3.6586584e-11
79	0x2d752425	1.3934663e-11
80	0x000001f4	7e-43
81	0x000001f4	7e-43
82	0x000001f4	7e-43
83	0x000001f4	7e-43
84	0x000001f4	7e-43
85	0x000001f4	7e-43
86	0x000001f4	7e-43
87	0x000001f4	7e-43
88	0x000001f4	7e-43
89	0x000001f4	7e-43
90	0x000001f4	7e-43
91	0x000001f4	7e-43
92	0x000001f4	7e-43
93	0x000001f4	7e-43
94	0x000001f4	7e-43
95	0x000001f4	7e-43
96	0x2d2d891a	9.864354e-12
97	0x2c9805ee	4.320758e-12
98	0x2ce55bd1	6.518765e-12
99	0x2d2fed08	1.000023e-11
100	0x2ce7e782	6.5911174e-12
101	0x2e3f7655	4.3533472e-11
102	0x2e299b6a	3.8564187e-11
103	0x2dbdf6ba	2.1596381e-11
104	0x2e3dd3ce	4.3161745e-11
105	0x2d553760	1.2119944e-11
106	0x2d62ba5c	1.2887993e-11
107	0x2d6e8ffb	1.3560704e-11
108	0x2caf41f0	4.9811197e-12
109	0x2e3e9e99	4.334186e-11
110	0x2dde134d	2.524705e-11
111	0x2d540075	1.2050906e-11
112	0x000001f4	7e-43
113	0x000001f4	7e-43
114	0x000001f4	7e-43
115	0x000001f4	7e-43
116	0x000001f4	7e-43
117	0x000001f4	7e-43
118	0x000001f4	7e-43
119	0x000001f4	7e-43
120	0x000001f4	7e-43
121	0x000001f4	7e-43
122	0x000001f4	7e-43
123	0x000001f4	7e-43
124	0x000001f4	7e-43
125	0x000001f4	7e-43
126	0x000001f4	7e-43
127	0x000001f4	7e-43
128	0x2d92cb89	1.6688666e-11
129	0x2c8c83c3	3.993668e-12
130	0x2d4570ad	1.12231726e-11
131	0x2d82d90a	1.4875674e-11
132	0x2cd90d42	6.168983e-12
133	0x2eabff4c	7.8215295e-11
134	0x2e8b75f2	6.3419395e-11
135	0x2e05a4d1	3.0387085e-11
136	0x2e988792	6.936242e-11
137	0x2db96885	2.1078481e-11
138	0x2d87f42c	1.5456157e-11
139	0x2dd882a2	2.461437e-11
140	0x2ca0eb9a	4.5736305e-12
141	0x2e96d3ca	6.8588316e-11
142	0x2e30c11c	4.0189282e-11
143	0x2d72a076	1.3791737e-11
144	0x2d80f13b	1.4659043e-11
145	0x2ce95a65	6.632294e-12
146	0x2cb182af	5.0451514e-12
147	0x2d4c8f6b	1.1627903e-11
148	0x2d389c86	1.0493944e-11
149	0x2e7877ec	5.6495184e-11
150	0x2e952c6b	6.783626e-11
151	0x2e3e785d	4.3307902e-11
152	0x2ea9aa80	7.715517e-11
153	0x2db9a7ef	2.1106642e-11
154	0x2dda1466	2.479279e-11
155	0x2d9bc58d	1.770919e-11
156	0x2d131ac1	8.361923e-12
157	0x2e8a1647	6.279471e-11
158	0x2e4d24e9	4.6644386e-11
159	0x2dcf01d3	2.3533986e-11
160	0x000001f4	7e-43
161	0x000001f4	7e-43
162	0x000001f4	7e-43
163	0x000001f4	7e-43
164	0x000001f4	7e-43
165	0x000001f4	7e-43
166	0x000001f4	7e-43
167	0x000001f4	7e-43
168	0x000001f4	7e-43
169	0x000001f4	7e-43
170	0x000001f4	7e-43
171	0x000001f4	7e-43
172	0x000001f4	7e-43
173	0x000001f4	7e-43
174	0x000001f4	7e-43
175	0x000001f4	7e-43
176	0x2caf56df	4.9834438e-12
177	0x2bacd475	1.2280304e-12
178	0x2bb7c07f	1.305636e-12
179	0x2c2cc340	2.4551056e-12
180	0x2bff9688	1.8160621e-12
181	0x2da59f01	1.882894e-11
182	0x2db88f91	2.0982134e-11
183	0x2d5d60db	1.2583902e-11
184	0x2dd085f4	2.370635e-11
185	0x2cf0ae7d	6.8405824e-12
186	0x2cdd748c	6.294137e-12
187	0x2cd3bcdb	6.017948e-12
188	0x2be5f20d	1.6338611e-12
189	0x2db30705	2.0353061e-11
190	0x2d843b26	1.503293e-11
191	0x2cc6c66c	5.6495277e-12
192	0x2d63e5cf	1.2954484e-11
193	0x2c95ff2d	4.263165e-12
194	0x2cec9e63	6.725108e-12
195	0x2d2f5ae5	9.967781e-12
196	0x2cd2f8d9	5.9961866e-12
197	0x2e7137c0	5.484657e-11
198	0x2e605ace	5.1012354e-11
199	0x2df9e051	2.8407639e-11
200	0x2e7b5bdb	5.7152377e-11
201	0x2d8eb128	1.6222204e-11
202	0x2d89d626	1.5670198e-11
203	0x2d95e57e	1.7041254e-11
204	0x2cb266e6	5.0704883e-12
205	0x2e76d631	5.6124164e-11
206	0x2e168ccd	3.4231108e-11
207	0x2d7abd96	1.4252951e-11
208	0x2dac9595	1.9620564e-11
209	0x2c9b5f8a	4.415972e-12
210	0x2d972851	1.7184617e-11
211	0x2dc204b8	2.2057342e-11
212	0x2d000929	7.277992e-12
213	0x2edb7bf9	9.980989e-11
214	0x2e972354	6.8729605e-11
215	0x2df41498	2.7748734e-11
216	0x2ea08a2f	7.300504e-11
217	0x2dd07483	2.3698604e-11
218	0x2d6dfafb	1.3527619e-11
219	0x2e0cff2c	3.2058953e-11
220	0x2c9de81f	4.487979e-12
221	0x2ead8b06	7.891825e-11
222	0x2e36f39a	4.159837e-11
223	0x2d5051eb	1.18416206e-11
224	0x2d6d1e52	1.3478623e-11
225	0x2c810d70	3.6678924e-12
226	0x2d1add87	8.8030755e-12
227	0x2d4ae266	1.1532641e-11
228	0x2cc60229	5.6277383e-12
229	0x2e8819e6	6.1891645e-11
230	0x2e637f9c	5.1727164e-11
231	0x2de26833	2.5739499e-11
232	0x2e796f47	5.671488e-11
233	0x2d9519a3	1.6950724e-11
234	0x2d6c0fdd	1.3418569e-11
235	0x2daa9361	1.9392212e-11
236	0x2c938fb0	4.193944e-12
237	0x2e76ea6c	5.6142133e-11
238	0x2e1177c8	3.307557e-11
239	0x2d54a1c6	1.2086726e-11
240	0x000001f4	7e-43
241	0x000001f4	7e-43
242	0x000001f4	7e-43
243	0x000001f4	7e-43
244	0x000001f4	7e-43
245	0x000001f4	7e-43
246	0x000001f4	7e-43
247	0x000001f4	7e-43
248	0x000001f4	7e-43
249	0x000001f4	7e-43
250	0x000001f4	7e-43
251	0x000001f4	7e-43
252	0x000001f4	7e-43
253	0x000001f4	7e-43
254	0x000001f4	7e-43
255	0x000001f4	7e-43

exp_avg f4 [128]
0	0xb4871c2d	-2.516621e-07
1	0xb62ba8f8	-2.5579338e-06
2	0xb706b446	-8.028996e-06
3	0x35090076	5.103715e-07
4	0x3659b17e	3.2438834e-06
5	0x00000004	6e-45
6	0xb5d89b3d	-1.6138434e-06
7	0x00000004	6e-45
8	0x33cc23d6	9.506009e-08
9	0x3663212a	3.384494e-06
10	0x80000004	-6e-45
11	0xb3eecb5b	-1.1119729e-07
12	0xb6a36292	-4.8692536e-06
13	0x35ef00cf	1.7807123e-06
14	0xb5b238d2	-1.327857e-06
15	0x80000004	-6e-45
16	0x364499b8	2.9295752e-06
17	0xb6ab090b	-5.09725e-06
18	0xb6a257aa	-4.8381817e-06
19	0xb54c499b	-7.610303e-07
20	0x3689d2e4	4.107469e-06
21	0x35e251e6	1.6862148e-06
22	0xb602ec03	-1.9508886e-06
23	0xb6cc83e5	-6.0950283e-06
24	0x3593cae5	1.1011404e-06
25	0x3636d3d5	2.7243416e-06
26	0x34fbcaba	4.6899896e-07
27	0x35dce3f9	1.6457626e-06
28	0xb7315799	-1.05704175e-05
29	0x358e3b6b	1.0597117e-06
30	0x36997481	4.573318e-06
31	0x3310fd97	3.375825e-08
32	0x34e7ddab	4.3188388e-07
33	0x37046713	7.891812e-06
34	0x3598f8fb	1.1397345e-06
35	0x345740a5	2.0046953e-07
36	0x359b7dde	1.1585032e-06
37	0x3724ad9d	9.815584e-06
38	0x362fafc9	2.6179353e-06
39	0xb6011cc6	-1.9239246e-06
40	0x35b3e795	1.3403939e-06
41	0x80000004	-6e-45
42	0x350be5d0	5.2115956e-07
43	0xb5cc41ee	-1.5218372e-06
44	0x3692452c	4.3591917e-06
45	0x369835a7	4.536199e-06
46	0xb65a5054	-3.2531289e-06
47	0x36300880	2.6230991e-06
48	0xb4439f9a	-1.8218853e-07
49	0x36447d51	2.927922e-06
50	0x80000004	-6e-45
51	0xb52876b8	-6.2757636e-07
52	0xb736364c	-1.0860687e-05
53	0xb5e67827	-1.7171304e-06
54	0xb53b53f8	-6.978512e-07
55	0x3685156c	3.9662027e-06
56	0x358401f3	9.835334e-07
57	0x80000004	-6e-45
58	0x35aff037	1.3108428e-06
59	0x35153b41	5.559305e-07
60	0x37380fd0	1.0970936e-05
61	0x00000004	6e-45
62	0xb6e9f0b8	-6.9719645e-06
63	0x3614e141	2.2184834e-06
64	0x35feeb74	1.8993001e-06
65	0x35258549	6.1661245e-07
66	0xb78fde70	-1.7150509e-05
67	0xb5af5ff2	-1.306644e-06
68	0xb637d410	-2.7392562e-06
69	0x80000004	-6e-45
70	0xb6ff76f3	-7.6134397e-06
71	0xb60afb7f	-2.0709992e-06
72	0x3621b07e	2.4093601e-06
73	0xb5b0914a	-1.3155307e-06
74	0xb5b5b354	-1.3537742e-06
75	0x3623af20	2.439083e-06
76	0xb619ee8b	-2.2937627e-06
77	0x80000004	-6e-45
78	0xb68208ee	-3.8753415e-06
79	0x3655453b	3.177977e-06
80	0xb59def25	-1.1767012e-06
81	0x36196a7d	2.286076e-06
82	0x3588404e	1.0151505e-06
83	0x36a2053d	4.828586e-06
84	0x364b90e4	3.0333695e-06
85	0x35bdf064	1.415156e-06
86	0x35dd8827	1.6505409e-06
87	0xb671f5c7	-3.605486e-06
88	0xb59915f5	-1.1405779e-06
89	0xb62ca6d2	-2.57271e-06
90	0xb5a466fb	-1.2248923e-06
91	0x377961d1	1.4864331e-05
92	0x3588b926	1.0186675e-06
93	0xb679b5cf	-3.7209718e-06
94	0x3575ef05	9.161743e-07
95	0xb4956cc3	-2.7832547e-07
96	0xb70d90a9	-8.437936e-06
97	0xb63bece3	-2.8003058e-06
98	0x369c39e5	4.655902e-06
99	0xb5d23a75	-1.5663232e-06
100	0x368f7325	4.2751367e-06
101	0xb4bcdec5	-3.5179815e-07
102	0xb5ba9468	-1.3901272e-06
103	0x354c3685	7.607526e-07
104	0xb52b177d	-6.3736644e-07
105	0x00000000	0.0
106	0x00000000	0.0
107	0xb59843af	-1.1344581e-06
108	0xb6138e3a	-2.1987494e-06
109	0x35538dc4	7.880992e-07
110	0x80000004	-6e-45
111	0xb67f0e0e	-3.8006142e-06
112	0xb2ae7ba6	-2.0312495e-08
113	0x375cb2d4	1.31546585e-05
114	0x37235da0	9.737356e-06
115	0xb5dc3abc	-1.6408371e-06
116	0xb598ada6	-1.1375421e-06
117	0x368d7ab4	4.216412e-06
118	0x80000004	-6e-45
119	0xb6b5ad79	-5.414415e-06
120	0x358bcd57	1.0416069e-06
121	0xb6ee4463	-7.100914e-06
122	0xb60093f7	-1.9159613e-06
123	0xb68481dd	-3.9490246e-06
124	0x35f4c077	1.8235431e-06
125	0xb70dff92	-8.4637595e-06
126	0xb6ec885f	-7.0492238e-06
127	0x00000004	6e-45

exp_avg_sq f4 [128]
0	0x32f6acea	2.8716801e-08
1	0x32880126	1.5833006e-08
2	0x31f0cd25	7.0082415e-09
3	0x30baa3a8	1.3579795e-09
4	0x3193eb7a	4.3050337e-09
5	0x000001f4	7e-43
6	0x31c938ad	5.856313e-09
7	0x000001f4	7e-43
8	0x31903ad9	4.197642e-09
9	0x32013c28	7.522466e-09
10	0x000001f4	7e-43
11	0x30450bc8	7.1684925e-10
12	0x31ce83f3	6.01039e-09
13	0x31c89624	5.837835e-09
14	0x3187df71	3.9544195e-09
15	0x000001f4	7e-43
16	0x31a0dc00	4.681624e-09
17	0x32053854	7.754426e-09
18	0x3284927b	1.5433434e-08
19	0x30ca1436	1.4703179e-09
20	0x319c210b	4.543954e-09
21	0x30dceeb9	1.6074956e-09
22	0x312cacb5	2.5127467e-09
23	0x336a8dcd	5.4611338e-08
24	0x311b6af6	2.2616269e-09
25	0x31b1d818	5.175945e-09
26	0x32ae10a9	2.0263842e-08
27	0x30b22b41	1.2963498e-09
28	0x334f2c6d	4.823635e-08
29	0x32248905	9.577211e-09
30	0x320b33a1	8.102604e-09
31	0x2e889975	6.2118234e-11
32	0x309280df	1.0659525e-09
33	0x331acf0a	3.604422e-08
34	0x31ead34c	6.834318e-09
35	0x30d8b6b8	1.5768e-09
36	0x328027eb	1.4919314e-08
37	0x335b3976	5.104217e-08
38	0x313b9250	2.729525e-09
39	0x318318bb	3.8154133e-09
40	0x3229e190	9.888382e-09
41	0x000001f4	7e-43
42	0x30b0755f	1.2839044e-09
43	0x31255347	2.4057998e-09
44	0x31a6091f	4.832273e-09
45	0x3180e492	3.7512757e-09
46	0x31beef58	5.556938e-09
47	0x31821833	3.786249e-09
48	0x30877b05	9.857507e-10
49	0x31c0c11a	5.6098886e-09
50	0x000001f4	7e-43
51	0x33497ca9	4.6912337e-08
52	0x330c00ef	3.259714e-08
53	0x31aa9363	4.964407e-09
54	0x3106cd8e	1.961641e-09
55	0x31b88fea	5.371466e-09
56	0x309ee7e0	1.1561916e-09
57	0x000001f4	7e-43
58	0x304f886c	7.550003e-10
59	0x30c36946	1.4218038e-09
60	0x3307804f	3.1548833e-08
61	0x000001f4	7e-43
62	0x32a3270b	1.8993452e-08
63	0x317865c0	3.6146588e-09
64	0x3090d267	1.0537179e-09
65	0x30d3689c	1.5382002e-09
66	0x351a38f4	5.745235e-07
67	0x2fb71a43	3.3306166e-10
68	0x31175d12	2.2026296e-09
69	0x000001f4	7e-43
70	0x331470ed	3.456164e-08
71	0x32ff0895	2.968981e-08
72	0x30d6bab7	1.5623617e-09
73	0x318234a4	3.7894825e-09
74	0x310da250	2.0610464e-09
75	0x324c4448	1.1889888e-08
76	0x31fdac8e	7.3828863e-09
77	0x000001f4	7e-43
78	0x337b89dc	5.8565874e-08
79	0x3152e692	3.0690086e-09
80	0x31aa58f8	4.9577658e-09
81	0x3124cfd8	2.3983286e-09
82	0x328484cf	1.5427217e-08
83	0x32e6376d	2.6800729e-08
84	0x31e4ff04	6.6646653e-09
85	0x3191fbda	4.2486876e-09
86	0x31f7b6d1	7.20943e-09
87	0x32211e30	9.378297e-09
88	0x32962b4d	1.748199e-08
89	0x31275906	2.4352302e-09
90	0x31742da2	3.5532612e-09
91	0x338502ce	6.193805e-08
92	0x30f6c269	1.795411e-09
93	0x31a0c168	4.6786006e-09
94	0x312b58a5	2.4934164e-09
95	0x315ae612	3.1853955e-09
96	0x3405d5fe	1.246444e-07
97	0x32bfc1cf	2.232346e-08
98	0x32a72978	1.9460217e-08
99	0x33f90ce6	1.1597312e-07
100	0x31c3f6f6	5.703323e-09
101	0x3172e0ae	3.534335e-09
102	0x310056fe	1.86759e-09
103	0x30124ed1	5.3226495e-10
104	0x31e539cb	6.6713475e-09
105	0x00000000	0.0
106	0x00000000	0.0
107	0x3209ec35	8.028157e-09
108	0x31c83bac	5.82755e-09
109	0x31f2ccc7	7.0664075e-09
110	0x000001f4	7e-43
111	0x319e04ea	4.598964e-09
112	0x2f56f5a3	1.9550454e-10
113	0x33547658	4.946773e-08
114	0x32bfa746	2.2311394e-08
115	0x304a4c8e	7.359596e-10
116	0x3166c95a	3.358386e-09
117	0x3260a75c	1.3076569e-08
118	0x000001f4	7e-43
119	0x31ee4b29	6.9352564e-09
120	0x316d5122	3.4534158e-09
121	0x332fc419	4.0923712e-08
122	0x31870d96	3.9305617e-09
123	0x331af748	3.608082e-08
124	0x3129ec4f	2.4727063e-09
125	0x32baad17	2.1731962e-08
126	0x322bb9ac	9.995727e-09
127	0x000001f4	7e-43
