experiments/ButtonPress/predictors/PlaySlot/behaviors/Policy_AllDemos/models/ActDec_ButtonPress.pth (torch, 248495 bytes, 18 tensors)

module.mlp.0.0.weight f4 [128, 24]
0.32038897 0.38376954 -0.06359163 -0.030156575 -0.1000447 0.057973187 -0.287564 -0.09712877
-0.087806694 0.1898856 0.21209179 0.037600555 -0.26335472 -0.08062197 -0.287243 -0.33549228
-0.30216303 -0.17289367 0.28013387 0.20680657 -0.19784434 -0.08025271 0.1953459 -0.110680185
-0.40414736 -0.5891632 0.19627777 -0.077313274 -0.380903 0.35038793 0.6696064 -0.2862094
0.14690396 -0.17980503 -0.4946888 -0.020373913 0.3088236 -0.73560053 0.17404406 0.44956723
0.41406447 -0.08498442 -0.31107917 0.044507004 -0.14491513 0.24906151 -0.33267808 0.54410803
-0.086210415 -0.1888307 0.043476712 -0.1731361 0.0945369 0.10832273 0.17768848 0.036079943
0.011571673 -0.039062385 -0.09039098 0.0071980404 0.12049564 -0.07172618 -0.20555024 0.10898586
-0.14705588 -0.081190854 -0.106982 0.015888328 0.13034995 0.23496759 0.1024687 -0.098299146
-0.1456189 0.3519895 0.029591247 -0.10020281 -0.39539808 0.47693762 -0.10666537 -0.092977956
-0.04722221 0.50710946 -0.11135339 0.03790307 -0.35435024 -0.11034147 0.31257138 -0.3895087
-0.14138176 -0.43871182 -0.0907335 -0.11887073 0.07622221 0.4420526 0.12935413 -0.09102918
0.059883874 -0.7957277 -0.18293552 0.052838795 0.61775714 -1.1164187 0.5166791 -0.40834326
-0.018633012 -0.046689816 -0.065879315 0.92204744 0.26016822 0.004257243 0.09727834 0.56707686
0.22349812 0.64990854 -0.122371025 0.2930661 0.4405483 -0.23383546 -0.7254832 0.25090486
0.4401144 -0.49508703 -0.022534892 0.22323237 0.34070006 -0.6382926 0.542746 0.08615478
0.10592288 -0.41447502 0.28377098 0.10150453 0.1084471 0.07352625 -0.016391285 0.29978454
0.058266144 -0.052064445 -0.17531207 -0.24382885 -0.13589808 -0.55966896 -0.07101736 -0.07560644
-0.0063524707 0.41827214 -0.14742231 0.076234974 -0.37769398 0.26075885 -0.046542052 0.11851124
-0.16199592 0.17169744 -0.039316818 -0.32070997 -0.06482749 -0.09075778 0.01428837 -0.50243586
0.0074132504 -0.33754498 0.1375023 0.31365654 0.051077697 0.29251614 0.42943928 -0.12519328
0.04093747 -0.15015227 0.10627204 -0.07196418 0.10714953 -0.092168234 0.22820449 -0.11635841
-0.19319832 0.09717497 0.20717786 -0.005288608 0.3178449 0.13322547 0.16318351 0.20126516
0.041448466 0.19685075 -0.03140103 0.039343845 0.21395779 0.20011051 -0.1870363 0.26148093
-0.14396636 0.33582932 -0.15853477 0.10290141 -0.28467655 -0.14344934 0.13056457 -0.1274838
0.11324491 0.008288784 -0.3128712 0.07208538 0.068772 0.07624495 -0.1812301 -0.27648702
0.07533187 -0.043134514 0.06995364 0.03782705 -0.22900575 -0.07001122 0.005698166 -0.06853644
0.027266305 0.13867687 -0.15154426 -0.1595689 -0.15312852 -0.12814488 0.07709412 -0.097131535
-0.092394926 0.19358085 0.12561934 0.12086249 0.12919141 -0.18261127 -0.19347316 0.06347141
0.17881048 0.12973863 0.10571004 0.17896447 0.21059877 -0.0054682866 0.12723179 0.024290554
0.0035073608 0.30629215 0.15820664 -0.03172753 -0.59093153 0.26139748 -0.076448806 -0.19283263
0.017293924 0.36421248 -0.081243806 0.09806015 -0.44004896 -0.10539821 0.08010269 -0.48599634
00000000: 060a a43e 717d c43e 543c 82bd ec0a f7bc
00000010: 3ce4 ccbd 4b75 6d3d 973b 93be 73eb c6bd
00000020: ffd3 b3bd 5f71 423e 972e 593e 0a03 1a3d
00000030: 6ed6 86be 221d a5bd 8411 93be a5c5 abbe
00000040: 1db5 9abe 0a0b 31be b56d 8f3e 1ac5 533e
00000050: b597 4abe 885b a4bd c108 483e 4bac e2bd
00000060: 67ec cebe 66d3 16bf 0afd 483e 6c56 9ebd
00000070: b805 c3be 0c66 b33e 536b 2b3f 0a8a 92be
00000080: fe6d 163e cf1e 38be da47 fdbe 31e7 a6bc
00000090: 201e 9e3e 5150 3cbf 9b38 323e ad2d e63e
000000a0: 4200 d43e 500c aebd c545 9fbe fa4c 363d
000000b0: a264 14be fb09 7f3e c854 aabe aa4a 0b3f
000000c0: 168f b0bd d65c 41be a314 323d 974a 31be
000000d0: 909c c13d 4fd8 dd3d f8f3 353e 90c8 133d
000000e0: 1d97 3d3c e1ff 1fbd e81e b9bd 8add eb3b
000000f0: 6bc6 f63d 2de5 92bd c37b 52be fb33 df3d
00000100: d195 16be 6447 a6bd 6119 dbbd 3d28 823c
00000110: 757a 053e 589b 703e 1cdb d13d 1051 c9bd
00000120: 1f1d 15be f837 b43e 5869 f23c 2137 cdbd
00000130: 9e71 cabe 2b31 f43e 6073 dabd 3a6b bebd
00000140: 136c 41bd edd1 013f 3f0d e4bd 4040 1b3d
00000150: 656d b5be b5fa e1bd 5b09 a03e af6d c7be
00000160: 61c6 10be d69e e0be 7cd2 b9bd 7f72 f3bd
00000170: 641a 9c3d b854 e23e 6975 043e 826d babd
00000180: cb48 753d d0b4 4bbf 7353 3bbe 7e6d 583d
00000190: 5525 1e3f cfe6 8ebf 1545 043f 5e12 d1be
000001a0: 42a4 98bc d23d 3fbd bceb 86bd 4d0b 6c3f
000001b0: c534 853e 5880 8b3b de39 c73d f32b 113f
000001c0: b1dc 643e 6860 263f a99d fabd c30c 963e
000001d0: 8c8f e13e 9072 6fbe 44b9 39bf 9a76 803e
000001e0: ad56 e13e 0c7c fdbe 189b b8bc 0797 643e
000001f0: 3d70 ae3e 2567 23bf 67f1 0a3f eb71 b03d
00000200: 18ee d83d 1236 d4be 6e4a 913e 9be1 cf3d
00000210: 8319 de3d ee94 963d 0447 86bc 5c7d 993e
00000220: 7ba8 6e3d 8741 55bd 0285 33be 45ae 79be
00000230: de28 0bbe 7746 0fbf 8d71 91bd 8dd7 9abd
00000240: 6328 d0bb c427 d63e e0f5 16be 1521 9c3d
00000250: 1b61 c1be 2f82 853e e1a2 3ebd 05b6 f23d
00000260: 42e2 25be 74d1 2f3e ac0a 21bd 1934 a4be
00000270: 46c4 84bd 37df b9bd c419 6a3c a39f 00bf
00000280: daea f23b b2d2 acbe 67cd 0c3e 9797 a03e
00000290: d936 513d adc4 953e 77df db3e ab32 00be
000002a0: 0cae 273d 84c1 19be 28a5 d93d f561 93bd
000002b0: 3671 db3d b3c2 bcbd 70ae 693e 514d eebd
000002c0: c8d5 45be ac03 c73d 6f26 543e 0f4c adbb
000002d0: 91bc a23e 426c 083e 9419 273e 7418 4e3e
000002e0: dec5 293d 3e93 493e 5e9e 00bd 0327 213d
000002f0: c017 5b3e c5e9 4c3e 7286 3fbe d4e0 853e
00000300: eb6b 13be d2f1 ab3e f056 22be f9bd d23d
00000310: 20c1 91be 62e4 12be b8b2 053e 1d8b 02be
00000320: f3ec e73d aecd 073c a730 a0be 80a1 933d
00000330: 56d8 8c3d 5026 9c3d 6294 39be b58f 8dbe
00000340: 9847 9a3d d1ad 30bd db43 8f3d 89f0 1a3d
00000350: 7c80 6abe 0b62 8fbd aeb7 ba3b d55c 8cbd
00000360: 965d df3c 4f01 0e3e 6b2e 1bbe 0866 23be
00000370: b9cd 1cbe 6938 03be 86e3 9d3d e6ec c6bd
00000380: 8d39 bdbd 0f3a 463e 5ba2 003e c186 f73d
00000390: c14a 043e 73fe 3abe d41d 46be 4cfd 813d
000003a0: 181a 373e 34da 043e 817e d83d 7642 373e
000003b0: 34a7 573e 502f b3bb 0d49 023e fcfc c63c
000003c0: c0db 653b 53d2 9c3e ec00 223e baf4 01bd
000003d0: 4a47 17bf e4d5 853e 3191 9cbd eb75 45be
000003e0: fdab 8d3c 0f7a ba3e 2763 a6bd c3d3 c83d
000003f0: 194e e1be 04db d7bd e10c a43d 83d4 f8be

module.mlp.0.0.bias f4 [128]
0.05689105 -0.07174381 -0.06660802 0.0839597 -0.002297395 -0.12085023 0.028482143 0.07852316
0.055630747 -0.20588678 0.07096312 0.023790875 -0.016551213 -0.08634176 0.124070205 0.018553508
0.1287748 0.015920008 0.042919125 0.046454 -0.015266275 0.109381296 0.065873496 -0.016525391
0.030550389 -0.037230443 0.08948566 0.086603984 0.04380887 -0.09423236 -0.013045103 -0.19352907
-0.17840014 -0.1937943 0.065262504 0.075656734 -0.08712449 -0.011459386 0.09879089 0.08043995
0.06007581 0.026581535 -0.12518974 -0.16991968 0.022747263 0.13485992 0.018787546 0.124387756
0.081375204 0.08831533 0.058241032 0.022876026 -0.13683917 0.11327414 -0.14893684 -0.010761666
-0.17311423 -0.16345935 0.08037218 0.07089377 0.03555891 0.06495974 -0.16285077 0.11346579
0.029550694 -0.041388903 0.024045467 -0.17278478 0.06103477 -0.13925791 -0.016693259 -0.002748631
0.088561594 0.0636076 0.10205026 0.027465958 -0.071183115 0.10105025 0.03502712 0.108176604
-0.025800718 -0.068374604 0.04079866 0.03874968 -0.17629658 -0.22306977 0.082711086 -0.11769913
0.042008467 -0.14958914 0.032754246 0.0029874998 0.05558583 -0.16899998 -0.075676665 -0.037105795
-0.1184552 -0.19258134 -0.15907748 0.06765978 0.09733192 -0.008736079 -0.14028229 0.05983825
0.006520632 0.062154215 0.007816907 0.09428744 -0.070965275 -0.07100415 -0.0078091663 0.067093246
0.036781166 -0.111819826 -0.051506545 -0.1913642 0.029634498 -0.11550276 0.015381193 0.054285914
0.06692076 0.04775619 -0.08408972 -0.17488505 0.0062291953 0.08118556 -0.17458962 -0.120870076
00000000: 9706 693d 6bee 92bd c969 88bd 10f3 ab3d
00000010: e48f 16bb 5380 f7bd 6253 e93c c0d0 a03d
00000020: 11dd 633d fcd3 52be 1d55 913d 15e5 c23c
00000030: 6996 87bc f3d3 b0bd 8518 fe3d 87fd 973c
00000040: 8bdd 033e ad6a 823c f7cb 2f3d 8d46 3e3d
00000050: 661f 7abc 4d03 e03d afe8 863d 4260 87bc
00000060: cf44 fa3c f37e 18bd 4244 b73d 6e5d b13d
00000070: ee70 333d e5fc c0bd 21bb 55bc 7c2c 46be
00000080: 87ae 36be 0372 46be 59a8 853d ebf1 9a3d
00000090: 536e b2bd 26c0 3bbc e152 ca3d b3bd a43d
000000a0: 0d12 763d 85c1 d93c bd31 00be 6dff 2dbe
000000b0: 7858 ba3c b818 0a3e 57e8 993c 02bf fe3d
000000c0: 0ba8 a63d abde b43d 268e 6e3d 8166 bb3c
000000d0: 911f 0cbe 46fc e73d e682 18be b351 30bc
000000e0: db44 31be e361 27be 2b9a a43d c130 913d
000000f0: 38a6 113d 9d09 853d 5ac2 26be c160 e83d
00000100: 4c14 f23c 6987 29bd 00fb c43c 7eee 30be
00000110: 98ff 793d a099 0ebe 4dc0 88bc 6022 34bb
00000120: c85f b53d b444 823d baff d03d 4a00 e13c
00000130: 74c8 91bd 6ff3 ce3d 9978 0f3d b28b dd3d
00000140: 075c d3bc fc07 8cbd 7f1c 273d fcb7 1e3d
00000150: 1787 34be 676c 64be 6e64 a93d 3e0c f1bd
00000160: 1211 2c3d e52d 19be 5129 063d eec9 433b
00000170: f8ad 633d 550e 2dbe 5efc 9abd 3ffc 17bd
00000180: a498 f2bd 0b34 45be 35e5 22be 3691 8a3d
00000190: f555 c73d c521 0fbc 29a6 0fbe f418 753d
000001a0: 07ab d53b 6b95 7e3d 7c12 003c c619 c13d
000001b0: 3e56 91bd a06a 91bd 09e4 ffbb 2f68 893d
000001c0: d9a7 163d cb01 e5bd 87f8 52bd faf4 43be
000001d0: 0cc4 f23c b68c ecbd 6601 7c3c e85a 5e3d
000001e0: c00d 893d ff9b 433d 3b37 acbd 1115 33be
000001f0: 471e cc3b 9d44 a63d 9fc7 32be bb8a f7bd

module.mlp.1.0.weight f4 [128, 128]
0.064578675 -0.3721796 0.013874435 0.18530612 -1.4044249 -0.09481523 0.19876829 -0.20769079
0.15964323 0.025863972 0.1337231 -0.0087781325 -0.25374508 -0.47511566 0.029832441 -0.37763122
0.062924735 0.17661595 -0.23569642 0.009829167 -0.25921452 0.11677232 -0.118209355 0.22796476
0.110305846 -0.4262895 -0.1133354 -0.10656204 0.065969765 -0.3011219 -0.05954193 -0.042885453
-0.015449212 0.010557596 0.05780615 0.0446557 -0.14090088 0.2139107 -0.01951671 0.15415192
0.037716586 -0.060924746 -0.09382314 0.033774294 0.034806933 -0.059137084 0.041410748 -0.07446446
0.18972373 -0.016054891 -0.11439257 0.024150446 -0.029706847 0.19500344 0.018205151 -0.21380752
0.05419719 0.07735371 -0.14242166 0.11946606 0.11677564 0.19295666 0.00321426 0.07776893
0.19388066 -0.32576895 -0.24970727 -0.07639371 0.07223525 0.10142558 0.17080304 0.06719463
0.15791869 0.20629202 -0.020212175 0.18091692 0.106387466 -0.08698128 0.19765775 -0.016079467
-0.5033595 -0.01830149 -0.14906271 0.07020431 -0.08057346 0.021402387 0.090830214 0.035006862
0.17122374 -0.038559414 0.15830703 -0.74459875 -0.116054855 0.76746607 -0.22148624 -0.4447229
-0.037208617 0.040632565 -0.0050642914 0.19496943 0.12425211 0.09083794 0.047966797 0.42836812
0.17217779 0.075595625 0.19223398 -0.019106051 -0.79849327 -0.044575766 -0.13778676 0.19675486
0.15914275 -0.40239227 0.1885387 0.31275713 0.04023904 0.0050575635 -0.12987374 0.03356633
-0.21570961 0.22673367 0.016247693 -0.017295696 0.18433715 0.17884544 0.076243795 -0.08175233
-0.23855855 0.31586167 0.01306566 0.005883263 0.23428999 -0.23025995 -0.20698471 0.24537802
0.07545824 -0.034908537 -0.094186395 0.2970719 0.24074979 0.13987869 0.06856666 0.07659451
0.12980403 0.019297674 0.30908898 0.42151323 0.1390039 0.06737272 0.2294692 0.34256753
0.103819914 0.06570744 0.09069246 0.15482731 -0.035577904 -0.09145312 0.42623016 0.10408602
0.022607483 -0.050537527 0.28952184 0.04814884 -0.064202935 0.04607196 0.24504314 0.04492047
0.022780653 0.3337012 -0.33926257 0.08392139 -0.35020995 0.08275081 -0.0071834843 -0.112019874
-0.16754733 0.023135176 0.31909862 0.08323863 -0.08156533 -0.013273369 -0.004954899 -0.008470288
-0.0038296734 -0.04871589 0.017836729 0.05763046 0.012476717 -0.08074483 0.031095333 -0.06995652
-0.15471785 -0.09618528 0.46584573 0.012995717 0.015916495 0.10503623 -0.14175943 0.18647423
0.31977165 0.009917148 0.07302712 -0.12144746 0.053177167 0.16527402 0.0050607617 0.077026084
0.36006716 -0.018894862 -0.107905395 0.20355535 -0.04056172 0.009639787 -0.3666791 0.04538525
0.16650176 0.037754573 0.13127059 0.29582864 0.20986679 -0.3178337 0.2483538 0.29480422
-0.0449869 0.048406657 0.026648661 0.07037516 0.10542746 0.10257249 0.04233301 -0.1489013
0.063895494 -0.06178995 0.08799384 0.200095 -0.22224641 0.0724704 0.5213107 -0.0762355
-0.009627639 -0.8180892 -0.07317463 -0.07472124 0.12171762 0.05915617 0.11642 0.05074338
0.12174778 -0.36955503 0.048142023 -0.014873488 -0.066567965 -0.13098319 0.2483912 0.053572416
00000000: d341 843d 538e bebe 9951 633c e3c0 3d3e
00000010: 32c4 b3bf 7d2e c2bd ea89 4b3e e5ac 54be
00000020: 8479 233e aee0 d33c b5ee 083e 28d2 0fbc
00000030: e0ea 81be 5c42 f3be 2a63 f43c e158 c1be
00000040: afde 803d d0da 343e 675a 71be 840a 213c
00000050: c4b7 84be 5326 ef3d bf17 f2bd 986f 693e
00000060: 08e8 e13d 9e42 dabe 641c e8bd 333d dabd
00000070: 281b 873d a62c 9abe 3de2 73bd a8a8 2fbd
00000080: b11e 7dbc c4f9 2c3c 24c6 6c3d e5e8 363d
00000090: 5248 10be 680b 5b3e 82e1 9fbc 00da 1d3e
000000a0: b57c 1a3d 3a8c 79bd 5926 c0bd ea56 0a3d
000000b0: b791 0e3d ba39 72bd 519e 293d d380 98bd
000000c0: f046 423e 8c85 83bc a746 eabd 28d7 c53c
000000d0: c65b f3bc fbae 473e f822 953c 5cf0 5abe
000000e0: dffd 5d3d 9f6b 9e3d fcd6 11be 9faa f43d
000000f0: 1128 ef3d 6e96 453e 56a6 523b 5145 9f3d
00000100: a788 463e 30cb a6be 43b3 7fbe 4e74 9cbd
00000110: 13f0 933d 37b8 cf3d fee6 2e3e 579d 893d
00000120: 70b5 213e 373e 533e 0194 a5bc 4942 393e
00000130: ace1 d93d 3e23 b2bd cb66 4a3e 16b9 83bc
00000140: 2bdc 00bf 02ed 95bc e5a3 18be 47c7 8f3d
00000150: b303 a5bd 0f54 af3c 3105 ba3d 5b63 0f3d
00000160: 4755 2f3e 7af0 1dbd 3d1b 223e 069e 3ebf
00000170: 2bae edbd a878 443f 4acd 62be b8b2 e3be
00000180: 1068 18bd 556e 263d 5bf2 a5bb 11a6 473e
00000190: e477 fe3d 3e09 ba3d d578 443d 1153 db3e
000001a0: 604f 303e e1d1 9a3d fcd8 443e 4b84 9cbc
000001b0: 0e6a 4cbf 1495 36bd f917 0dbe 1b7a 493e
000001c0: 51f6 223e 5c06 cebe 4a10 413e b421 a03e
000001d0: b1d1 243d ebb9 a53b 9ffd 04be d97c 093d
000001e0: fbe2 5cbe df2c 683e e219 853c b4af 8dbc
000001f0: e1c2 3c3e 4223 373e b525 9c3d c46d a7bd
00000200: b148 74be 9fb8 a13e 5a11 563c 63c8 c03b
00000210: b7e9 6f3e 44c9 6bbe cdf3 53be 6044 7b3e
00000220: da89 9a3d 41fc 0ebd cce4 c0bd cf19 983e
00000230: 1d87 763e 5c3c 0f3e ad6c 8c3d 95dd 9c3d
00000240: 59eb 043e 2816 9e3c e940 9e3e 95d0 d73e
00000250: 0a57 0e3e b5fa 893d f9f9 6a3e 0365 af3e
00000260: 899f d43d 9f91 863d f8bc b93d 0d8b 1e3e
00000270: 23ba 11bd c64b bbbd d73a da3e 0d2b d53d
00000280: 5433 b93c 7000 4fbd 353c 943e b837 453d
00000290: d47c 83bd f4b5 3c3d 97ec 7a3e 87fe 373d
000002a0: 7e9e ba3c e2da aa3e d3b3 adbe fade ab3d
000002b0: b84e b3be 4279 a93d 6f63 ebbb ad6a e5bd
000002c0: 8791 2bbe fb85 bd3c e560 a33e 0479 aa3d
000002d0: b90b a7bd 8b78 59bc b55c a2bb f6c6 0abc
000002e0: 42fb 7abb 508a 47bd 551e 923c eb0d 6c3d
000002f0: 256b 4c3c 8c5d a5bd a4bb fe3c 5d45 8fbd
00000300: 5b6e 1ebe cafc c4bd 5583 ee3e fdeb 543c
00000310: 4f63 823c 3c1d d73d 6229 11be 1af3 3e3e
00000320: 1cb9 a33e 897b 223c 3e8f 953d 72b9 f8bd
00000330: 4dd0 593d 983d 293e bfd4 a53b dabf 9d3d
00000340: b95a b83e 66c9 9abc 81fd dcbd d070 503e
00000350: 0c24 26bd 32f0 1d3c 5dbd bbbe e2e5 393d
00000360: 707f 2a3e 8aa4 1a3d cc6b 063e da76 973e
00000370: 52e7 563e 19bb a2be 7550 7e3e 94f0 963e
00000380: 2f44 38bd 0f46 463d 4b4e da3c da20 903d
00000390: 5aea d73d 8711 d23d 6165 2d3d 9579 18be
000003a0: a4db 823d 7517 7dbd 1d36 b43d b4e5 4c3e
000003b0: 9094 63be 5c6b 943d 9e74 053f 5c21 9cbd
000003c0: 3fbd 1dbc 4b6e 51bf 95dc 95bd 7307 99bd
000003d0: 1647 f93d bd4d 723d 9c6d ee3d 4ad8 4f3d
000003e0: e656 f93d 5136 bdbe 9230 453d eeaf 73bc
000003f0: c954 88bd 7520 06be 435a 7e3e c06e 5b3d

module.mlp.1.0.bias f4 [128]
-0.083981186 0.062053245 0.052041676 -0.021170793 0.04055513 -0.001875135 -0.036443096 0.058921836
-0.01918325 0.13354753 0.06609003 0.06068942 0.06573148 -0.02302131 -0.07542603 0.13715371
0.011337636 -0.07648775 0.011772187 0.05851932 0.0009730208 0.107240885 -0.109296136 0.088198334
-0.054862384 0.11304064 -0.08325994 0.025530543 -0.070120335 0.010772223 0.04977299 -0.033387203
0.053452678 -0.028211208 0.122317314 -0.0493614 0.017562525 0.00816988 -0.02117078 0.04086443
0.0025622596 0.027066 -0.07846233 0.09270064 -0.003446095 -0.07484609 0.100803815 -2.8986495e-05
0.010222361 0.081890725 0.13519844 0.08046011 0.07338899 0.0605467 0.0041930694 -0.0029381637
0.021035085 0.009526191 0.116381325 0.030539716 0.029798359 -0.085686065 -0.027188877 0.03718455
0.013300827 -0.023767013 0.0079711005 0.0068489388 0.035818186 -0.02497472 0.09615438 -0.017066471
0.044856492 0.049196247 -0.07915217 -0.03522351 -0.07824295 -0.0127113145 0.06857565 0.038659994
-0.07565053 -0.019473188 0.10858754 0.016776146 0.027537322 -0.002955651 -0.03265536 -0.0073097944
-0.10577809 -0.07549289 -0.032771368 0.02219052 -0.03561401 -0.074945904 0.13103856 0.049375117
0.13369837 -0.0123724 0.07613081 -0.057014767 0.056938898 0.10465303 -0.11126123 0.031849634
0.025258467 0.104925744 0.08815652 0.05403727 0.11773075 -0.07549516 -0.009649818 -0.019299151
0.12181443 -0.089313604 0.05218475 -0.04814628 -0.051779095 0.10027514 0.100030884 0.032423586
0.02965879 -0.08280336 0.011358175 -0.058680277 0.088183574 -0.016750181 -0.004594491 0.112720564
00000000: 54fe abbd 8b2b 7e3d a729 553d 5f6e adbc
00000010: 231d 263d 17c7 f5ba 5b45 15bd 0658 713d
00000020: 3126 9dbc afc0 083e 365a 873d 7895 783d
00000030: 3a9e 863d 3097 bcbc f678 9abd 0672 0c3e
00000040: 7ec1 393c 9ca5 9cbd 22e0 403c f4b1 6f3d
00000050: 5212 7f3a 1ca1 db3d a7d6 dfbd 54a1 b43d
00000060: 61b7 60bd da81 e73d 3084 aabd 6e25 d13c
00000070: 409b 8fbd fa7d 303c c3de 4b3d 05c1 08bd
00000080: 32f1 5a3d 311b e7bc 8081 fa3d 2e2f 4abd
00000090: 49df 8f3c f6da 053c 586e adbc 7661 273d
000000a0: 95eb 273b 84b9 dd3c dcb0 a0bd d5d9 bd3d
000000b0: e1d7 61bb e848 99bd 3b72 ce3d 0628 f3b7
000000c0: b17b 273c 53b6 a73d 7671 0a3e 45c8 a43d
000000d0: f74c 963d d1ff 773d 0466 893b 358e 40bb
000000e0: c551 ac3c be13 1c3c 5559 ee3d 6d2e fa3c
000000f0: b01b f43c 2d7c afbd 35bb debc d44e 183d
00000100: b6eb 593c 0ab3 c2bc 3899 023c 106d e03b
00000110: 17b6 123d c997 ccbc 96ec c43d fcce 8bbc
00000120: 71bb 373d 0182 493d 881a a2bd 8746 10bd
00000130: d73d a0bd 1e43 50bc 6471 8c3d f159 1e3d
00000140: aaee 9abd 3c86 9fbc 2563 de3d 216e 893c
00000150: f395 e13c 98b3 41bb a0c1 05bd 0087 efbb
00000160: 2fa2 d8bd 049c 9abd 453b 06bd e5c8 b53c
00000170: ffdf 11bd 3d7d 99bd f92e 063e 903d 4a3d
00000180: 3ae8 083e 9bb5 4abc 78ea 9b3d 5188 69bd
00000190: c338 693d 5454 d63d eedc e3bd c374 023d
000001a0: d8ea ce3c 4fe3 d63d 688b b43d 2f56 5d3d
000001b0: d21c f13d 359d 9abd 451a 1ebc 4119 9ebc
000001c0: d879 f93d 0dea b6bd adbf 553d 0935 45bd
000001d0: 5116 54bd 0d5d cd3d fedc cc3d 98ce 043d
000001e0: fef6 f23c cf94 a9bd a417 3a3c bb5a 70bd
000001f0: 9799 b43d ad37 89bc 628d 96bb 0ada e63d

module.mlp.2.weight f4 [4, 128]
0.06517178 0.19650054 -0.2693071 -0.46601835 -0.24944238 -0.07146113 -0.0029930372 -0.029904108
0.014949787 -0.43809482 -0.16099477 0.1609887 0.26795536 0.0676378 -0.019560948 0.09822624
-0.1692493 -0.08672808 -0.05240009 0.17835099 0.26752502 0.19451374 0.030210366 0.14030863
0.020127848 0.19603853 -0.034737214 -0.070233434 -0.07441105 -0.24206796 -0.006338623 0.7905735
0.1013032 0.11752388 -0.05022163 -0.0040746946 -0.2277884 0.06286364 0.061104555 -0.017382301
0.047314897 -0.19670281 0.7339573 0.12464172 -0.027092759 -0.5750826 0.09066655 0.077318445
0.1745776 -0.103704765 -0.100158386 -0.24271779 0.0044845273 0.23249833 0.017200835 0.057293594
-0.06133289 0.07706739 -0.06203718 0.038198262 0.19614632 -0.07833368 0.0038462477 -0.123642825
0.27134347 0.21709782 0.45508286 0.031317625 0.0004974804 0.073924266 -0.41668543 -0.1675969
0.24824685 -0.30381802 -0.010874087 0.055134367 -0.07738731 0.0018201479 -0.23325835 -0.005161133
0.05060042 0.16578034 -0.08337894 -0.12721294 0.066868536 -0.07366617 0.010964629 0.072422616
-0.058406197 -0.06291163 -0.0430513 0.059072398 0.034497418 0.03902143 -0.06330306 0.05515048
0.13132048 0.07502998 -0.15496846 0.015920991 -0.0978495 -0.23474269 -0.010238499 0.17374718
0.4663636 -0.029622825 -0.17004937 -0.07496269 -0.43948197 0.23403728 0.011428132 -0.0030737806
0.07632235 -0.38516504 0.104598835 0.19353387 0.31325933 0.048521813 0.08594773 -0.006403364
0.26256037 0.012261432 -0.024757767 0.035245065 0.08726299 -0.40759212 0.10235122 0.11053968
-0.4838915 0.07715149 -0.51064265 -0.04911411 0.019161144 -0.015175596 0.06855749 0.0011433045
-0.1561912 0.11581068 0.03665705 0.1194926 -0.54171455 -0.42958593 0.018077254 0.13519238
0.06919879 -0.005866494 0.052818153 0.24616432 -0.058496162 0.26074418 -0.058626704 0.13485141
-0.036741327 -0.4659056 0.06197045 -0.02599215 -0.06388582 0.14981227 0.06728167 1.0425242
-0.46342313 0.106109105 -0.019806184 -0.024239914 -0.27134013 -0.031449836 0.056681655 0.15457281
0.17616385 0.120743155 -0.066078834 0.12379027 -0.009037427 -0.017186891 0.16964573 -0.046093214
0.04557037 -0.66612726 0.10391293 0.06625153 0.030285707 -0.5321532 0.14773832 0.034222845
-0.05783092 -0.100103065 0.24778359 -0.097244374 -0.041551724 0.040644225 -0.032029208 -0.086098984
-0.5043302 0.02482151 -0.35009 0.1911516 0.026696868 0.01761749 0.024191828 -0.03692571
-0.019112248 -0.39430195 -0.048742544 -0.06317513 -0.036836356 0.15907465 -0.34422922 0.06847616
-0.043383025 -0.054036427 0.029167447 0.15349545 0.0368889 0.044471115 0.066654734 0.13091941
-0.031914398 -0.037395492 0.037111238 0.09209791 -0.0154458815 -0.026406823 0.25071934 0.2626729
0.3020712 -0.02286413 -0.0025762294 0.10487006 -0.4248751 0.077882744 -0.03956727 -0.44255906
-0.016902141 0.041164137 -0.5096089 -0.021295056 0.0477133 -0.045681298 0.015512441 -0.009466277
0.20706162 -0.04435763 0.076243035 -0.44397557 -0.3676057 0.2700969 -0.34779721 -0.060217965
-0.011050905 0.0017586101 0.19553393 -0.049726654 -0.010243444 -0.00033384218 0.19044976 0.101643085
00000000: c878 853d 7037 493e 9fe2 89be f599 eebe
00000010: d36d 7fbe 375a 92bd d526 44bb 76f9 f4bc
00000020: f4ef 743c f74d e0be d0db 24be 39da 243e
00000030: 7231 893e b085 8a3d 483e a0bc d72a c93d
00000040: b04f 2dbe 7e9e b1bd 7aa1 56bd a4a1 363e
00000050: 0af9 883e 9c2e 473e bb7b f73c 11ad 0f3e
00000060: 28e3 a43c 53be 483e 9c48 0ebd 8cd6 8fbd
00000070: d264 98bd aae0 77be 39b4 cfbb 0663 4a3f
00000080: 0d78 cf3d 5cb0 f03d 32b5 4dbd 0485 85bb
00000090: 5d41 69be a7be 803d c548 7a3d 5465 8ebc
000000a0: 44cd 413d 766c 49be a0e4 3b3f 2844 ff3d
000000b0: a2f1 ddbc 9d38 13bf 62af b93d 2259 9e3d
000000c0: 78c4 323e 2a63 d4bd d71f cdbd 038b 78be
000000d0: f1f2 923b 0b14 6e3e c4e8 8c3c b0ac 6a3d
000000e0: 3238 7bbd 82d5 9d3d b31a 7ebd c875 1c3d
000000f0: 95da 483e 696d a0bd 5411 7c3b 7338 fdbd
00000100: 88ed 8a3e e44e 5e3e 9f00 e93e e946 003d
00000110: 5869 023a 9b65 973d cb57 d5be 869e 2bbe
00000120: 6c34 7e3e 098e 9bbe 3a29 32bc 93d4 613d
00000130: 3d7d 9ebd 0792 ee3a 47db 6ebe b91e a9bb
00000140: 6342 4f3d 52c2 293e 94c2 aabd 1c44 02be
00000150: 5ff2 883d 4ade 96bd fda4 333c 4f52 943d
00000160: 563b 6fbd d0d7 80bd 8f56 30bd e6f5 713d
00000170: 2a4d 0d3d efd4 1f3d 09a5 81bd 78e5 613d
00000180: e078 063e 51a9 993d 0db0 1ebe bd6c 823c
00000190: 5265 c8bd 6360 70be 61bf 27bc c8ea 313e
000001a0: 36c7 ee3e 91ab f2bc 6c21 2ebe 0a86 99bd
000001b0: c803 e1be 78a7 6f3e 0f3d 3b3c 7b71 49bb
000001c0: e44e 9c3d 5a34 c5be ea37 d63d be2d 463e
000001d0: 8763 a03e cfbe 463d 5d05 b03d 4fd3 d1bb
000001e0: 506e 863e 2ce4 483c cdd0 cabc 215d 103d
000001f0: f0b6 b23d eaaf d0be 849d d13d a162 e23d
00000200: a0c0 f7be 9a01 9e3d 7ab9 02bf e12b 49bd
00000210: d5f7 9c3c 10a3 78bc df67 8c3d efda 953a
00000220: 96f0 1fbe 262e ed3d b425 163d 89b8 f43d
00000230: cead 0abf b0f2 dbbe c016 943c df6f 0a3e
00000240: 18b8 8d3d b83b c0bb d957 583d 8012 7c3e
00000250: ac99 6fbd 4380 853e 8e22 70bd 7d16 0a3e
00000260: 137e 16bd 2e8b eebe bad4 7d3d 7ded d4bc
00000270: 92d6 82bd 6368 193e f9ca 893d 6f71 853f
00000280: cc45 edbe bb4f d93d 9440 a2bc c992 c6bc
00000290: 18ed 8abe 8bd1 00bd 062b 683d 5648 1e3e
000002a0: 4c64 343e 3048 f73d 5754 87bd c185 fd3d
000002b0: b711 14bc 86cb 8cbc 9cb7 2d3e 3dcc 3cbd
000002c0: ffa7 3a3d 5187 2abf 4dd0 d43d e2ae 873d
000002d0: bb19 f83c 313b 08bf b748 173e 412d 0c3d
000002e0: 1de0 6cbd d602 cdbd fbba 7d3e 0f28 c7bd
000002f0: 2432 2abd 8f7a 263d 0f31 03bd aa54 b0bd
00000300: c91b 01bf 7b56 cb3c ff3e b3be 3fbd 433e
00000310: 64b3 da3c 8e52 903c f12d c63c 6a3f 17bd
00000320: 4a91 9cbc f2e1 c9be 43a6 47bd f661 81bd
00000330: b8e1 16bd 77e4 223e d03e b0be 3b3d 8c3d
00000340: 66b2 31bd 4d55 5dbd 92f0 ee3c e92d 1d3e
00000350: d118 173d 5827 363d 4782 883d bd0f 063e
00000360: acb8 02bd 042c 19bd f401 183d d49d bc3d
00000370: b910 7dbc 1f53 d8bc 495e 803e 107d 863e
00000380: 14a9 9a3e 8e4d bbbc f5d5 28bb 1dc6 d63d
00000390: 3b89 d9be fd80 9f3d 4a11 22bd 1a97 e2be
000003a0: 5c76 8abc ba9b 283d bb75 02bf f872 aebc
000003b0: 056f 433d 501c 3bbd e527 7e3c 7218 1bbc
000003c0: f607 543e 59b0 35bd 4f25 9c3d c450 e3be
000003d0: d036 bcbe 244a 8a3e 7a12 b2be 1da7 76bd
000003e0: db0e 35bc 2a81 e63a 0c3a 483e 2dae 4bbd
000003f0: 1ed4 27bc 8a07 afb9 4305 433e 402a d03d

module.mlp.2.bias f4 [4]
0.056967173 0.031224135 -0.08674328 0.011556802
00000000: 6956 693d c2c9 ff3c 76a6 b1bd be58 3d3c

exp_avg f4 [128, 24]
4.364748e-08 2.6352495e-08 -4.646794e-08 -2.1206604e-07 1.0669213e-07 8.852315e-08 -1.7235563e-07 -2.281214e-07
-2.163375e-07 2.4112322e-07 -1.5126635e-07 1.3089135e-07 -2.2918039e-07 -3.6566227e-08 1.0839151e-07 -2.2065747e-07
1.9518396e-08 2.0044182e-07 1.5021719e-07 3.2735922e-08 5.860501e-10 1.8707127e-07 -2.601398e-08 -2.0878558e-07
3.9598925e-07 6.046231e-07 4.993812e-07 -1.1852245e-07 3.64968e-07 5.313673e-07 -3.931734e-07 2.5474835e-08
-3.340677e-07 1.9531558e-07 4.1690848e-07 5.1858206e-07 4.6305395e-08 -4.8591767e-07 4.743342e-07 5.2381075e-08
-5.53357e-07 3.5406725e-07 -8.1207885e-09 5.522169e-07 -4.779966e-07 1.1184529e-07 -2.9508132e-07 9.668558e-08
-6e-45 -6e-45 -6e-45 6e-45 -6e-45 -6e-45 6e-45 6e-45
6e-45 -6e-45 6e-45 -6e-45 6e-45 6e-45 -6e-45 6e-45
6e-45 -6e-45 -6e-45 -6e-45 6e-45 -6e-45 6e-45 6e-45
-3.5116824e-07 -5.7513734e-07 -6.6052735e-07 -4.6151953e-07 -1.732445e-07 -3.8614502e-07 -1.1706368e-07 -5.0446187e-07
-3.0441407e-07 5.492556e-07 -5.828746e-07 -3.153572e-07 -6.189289e-07 4.182014e-07 -4.6416358e-07 -5.861107e-07
6.0920826e-07 2.5600366e-07 5.698077e-07 -1.2398341e-07 6.420235e-07 3.5871832e-07 3.7217882e-07 -6.011477e-07
-1.2423847e-07 -1.4247182e-07 -2.6322886e-07 -3.046327e-07 -7.206106e-08 -2.0658874e-08 -1.6905328e-07 -2.4787454e-07
-2.4316464e-07 3.8388103e-07 -2.7188483e-07 -9.314417e-08 -3.588917e-07 1.04762066e-07 -1.5908749e-07 -3.94952e-07
2.0934137e-07 1.5018377e-07 3.3366229e-07 3.7050444e-08 2.40578e-07 2.3954277e-07 1.6785897e-07 -3.4726784e-07
3.482082e-08 3.7333844e-08 2.0897613e-07 5.267106e-07 -8.4633015e-08 -8.6636035e-08 4.0148825e-07 4.4713553e-07
5.191941e-07 -6.705319e-07 2.58641e-07 -1.1802093e-07 5.391767e-07 3.2722276e-08 4.4262947e-08 5.200912e-07
-1.13132465e-07 -4.9209217e-07 -5.0272644e-07 -3.3137982e-07 -2.1333176e-07 -4.2276304e-07 -6.546527e-08 4.809065e-07
2.0404855e-08 2.0578302e-08 1.23087665e-08 -3.6441147e-08 3.653941e-08 2.156282e-08 -3.1846522e-08 -2.3780313e-08
-4.109751e-08 3.1611716e-08 4.292771e-09 3.5158898e-08 -2.1770983e-08 -1.8130654e-08 2.6793009e-08 -1.5381673e-08
-1.106431e-08 4.080111e-08 1.792309e-08 3.2864598e-08 -1.5392768e-08 1.7435255e-08 -1.8475454e-08 -2.549118e-08
-5.243139e-08 -7.691023e-08 -1.0646209e-07 -1.0654946e-07 -2.9227968e-08 -4.289605e-08 -5.454777e-08 -9.1098e-08
-8.9768974e-08 1.3266866e-07 -8.6609674e-08 -4.8758583e-08 -1.3412061e-07 5.2040974e-08 -9.0826596e-08 -1.2363722e-07
8.956193e-08 7.351434e-08 1.33566e-07 2.9730861e-08 1.1198869e-07 8.644783e-08 6.6156346e-08 -1.2193078e-07
-3.0553462e-08 -4.375546e-08 -3.083586e-08 1.3422491e-08 -2.697292e-08 -4.0852573e-08 2.887521e-08 3.9255226e-09
2.5777664e-08 -1.689216e-08 -1.7403256e-08 -3.9388212e-08 2.1379338e-09 3.3868474e-08 -4.1163673e-08 4.3919974e-09
3.636e-08 -2.2147471e-08 -7.7936024e-10 -2.8801168e-08 3.8161684e-08 -1.1426691e-08 2.2431081e-08 5.1137765e-09
6e-45 6e-45 -6e-45 6e-45 -6e-45 -6e-45 -6e-45 6e-45
6e-45 6e-45 -6e-45 -6e-45 6e-45 -6e-45 -6e-45 6e-45
6e-45 6e-45 6e-45 6e-45 -6e-45 -6e-45 -6e-45 -6e-45
-3.9196118e-07 -6.3235797e-07 -7.516132e-07 -5.215285e-07 -1.9978785e-07 -4.2668725e-07 -1.2207768e-07 -5.694369e-07
-3.4114635e-07 6.111171e-07 -6.760475e-07 -3.4530743e-07 -7.0716095e-07 4.6310163e-07 -5.2526383e-07 -6.679171e-07
00000000: e976 3b33 c05d e232 0a94 47b3 45b4 63b4
00000010: 9e1e e533 1e1a be33 c110 39b4 88f1 74b4
00000020: 664a 68b4 b973 8134 c76b 22b4 248b 0c34
00000030: a014 76b4 fe0c 1db3 ddc4 e833 dded 6cb4
00000040: 68a9 a732 0739 5734 634b 2134 8799 0c33
00000050: 9c17 2130 c2dd 4834 5975 dfb2 8b2e 60b4
00000060: 5998 d434 624d 2235 370d 0635 6886 feb3
00000070: d2f0 c334 48a3 0e35 5715 d3b4 c1d3 da32
00000080: ea59 b3b4 f0b7 5134 77d3 df34 b034 0b35
00000090: 52e1 4633 0270 02b5 ffa7 fe34 9af9 6033
000000a0: 678a 14b5 a216 be34 9b83 0bb2 0e3c 1435
000000b0: ad4f 00b5 992f f033 ab6b 9eb4 76a1 cf33
000000c0: 0400 0080 0400 0080 0400 0080 0400 0000
000000d0: 0400 0080 0400 0080 0400 0000 0400 0000
000000e0: 0400 0000 0400 0080 0400 0000 0400 0080
000000f0: 0400 0000 0400 0000 0400 0080 0400 0000
00000100: 0400 0000 0400 0080 0400 0080 0400 0080
00000110: 0400 0000 0400 0080 0400 0000 0400 0000
00000120: 3288 bcb4 2363 1ab5 184f 31b5 c3c6 f7b4
00000130: 1605 3ab4 5e4f cfb4 7064 fbb3 5b6a 07b5
00000140: 5a6e a3b4 8f70 1335 d676 1cb5 5d4e a9b4
00000150: 7824 26b5 2a85 e034 2832 f9b4 3855 1db5
00000160: 7988 2335 e070 8934 e3f4 1835 4d20 05b4
00000170: 8557 2c35 df95 c034 decf c734 8e5e 21b5
00000180: 6966 05b4 5bfa 18b4 e651 8db4 668c a3b4
00000190: fdbf 9ab3 5875 b1b2 0385 35b4 9e13 85b4
000001a0: 4b8c 82b4 3518 ce34 91f7 91b4 8d06 c8b3
000001b0: b3ad c0b4 8ef9 e033 a3d1 2ab4 ca09 d4b4
000001c0: 51c7 6034 3342 2134 3222 b334 6521 1f33
000001d0: ca28 8134 829a 8034 b93c 3434 2170 bab4
000001e0: e58d 1533 ff58 2033 ec62 6034 4763 0d35
000001f0: 7ebf b5b3 aa0c bab3 208c d734 d70d f034
00000200: bf5e 0b35 9afe 33b5 59db 8a34 b172 fdb3
00000210: f1bb 1035 868a 0c33 a01b 3e33 659c 0b35
00000220: 3bf3 f2b3 5118 04b5 19f3 06b5 7fe8 b1b4
00000230: 3010 65b4 1cf8 e2b4 ea95 8cb3 a517 0135
00000240: c046 af32 2ac4 b032 8776 5332 7783 1cb3
00000250: 82ef 1c33 2539 b932 9fc7 08b3 7645 ccb2
00000260: 3183 30b3 73c5 0733 9d7f 9331 9e01 1733
00000270: e602 bbb2 bbbd 9bb2 7326 e632 a820 84b2
00000280: 5a15 3eb2 4b3d 2f33 4bf5 9932 0227 0d33
00000290: 0e39 84b2 88c4 9532 f4b3 9eb2 b3f7 dab2
000002a0: ec30 61b3 d929 a5b3 27a0 e4b3 2fd0 e4b3
000002b0: fb10 fbb2 b53c 38b3 e847 6ab3 a8a1 c3b3
000002c0: 04c7 c0b3 af73 0e34 2cfe b9b3 a16a 51b3
000002d0: cb02 10b4 a883 5f33 730c c3b3 24c1 04b4
000002e0: 3155 c033 f0de 9d33 586a 0f34 db62 ff32
000002f0: 6f7e f033 32a5 b933 d611 8e33 14ec 02b4
00000300: e339 03b3 a3ed 3bb3 6370 04b3 bd98 6632
00000310: 14b2 e7b2 e175 2fb3 4209 f832 43e1 8631
00000320: af6d dd32 411a 91b2 2a7e 95b2 cc2b 29b3
00000330: eeea 1231 c876 1133 f0cb 30b3 6be8 9631
00000340: 3e2a 1c33 ce3e beb2 9a3a 56b0 7066 f7b2
00000350: 37e7 2333 1e4f 44b2 78ae c032 41b5 af31
00000360: 0400 0000 0400 0000 0400 0080 0400 0000
00000370: 0400 0080 0400 0080 0400 0080 0400 0000
00000380: 0400 0000 0400 0000 0400 0080 0400 0080
00000390: 0400 0000 0400 0080 0400 0080 0400 0000
000003a0: 0400 0000 0400 0000 0400 0000 0400 0000
000003b0: 0400 0080 0400 0080 0400 0080 0400 0080
000003c0: bc6e d2b4 4fbf 29b5 77c2 49b5 2aff 0bb5
000003d0: 4485 56b4 7313 e5b4 7514 03b4 68db 18b5
000003e0: cc26 b7b4 a60b 2435 a179 35b5 b162 b9b4
000003f0: bbd3 3db5 34a0 f834 dbff 0cb5 ea4a 33b5

exp_avg_sq f4 [128, 24]
1.6123233e-12 3.035361e-12 3.706397e-12 2.230203e-12 1.3260349e-12 1.869939e-12 9.225564e-13 2.2072663e-12
1.7716076e-12 3.2918648e-12 2.6672345e-12 1.8281752e-12 3.5659928e-12 1.8675324e-12 3.1959546e-12 3.2563889e-12
2.9925441e-12 1.3660819e-12 2.9035047e-12 5.6469266e-13 3.802503e-12 1.6347163e-12 1.6287221e-12 2.9228562e-12
2.3235099e-12 5.8192283e-12 1.535361e-11 4.155228e-11 3.1842268e-12 4.6599187e-12 2.1028153e-11 3.1748354e-11
3.8282044e-11 5.9016354e-11 1.935383e-11 4.663727e-12 4.6396897e-11 3.78555e-12 4.452964e-12 4.4003023e-11
7.720148e-12 2.8516014e-11 3.7137775e-11 1.1007675e-11 1.10227e-11 2.8192114e-11 3.5764033e-12 4.090539e-11
4.4458518e-18 6.1164233e-18 2.785395e-18 1.5159203e-17 7.45181e-18 1.0395047e-17 1.5514285e-17 6.9227957e-18
2.3480178e-17 1.716253e-17 1.5229102e-19 1.05176495e-17 7.323584e-18 1.0530933e-17 1.2584141e-17 8.254425e-18
3.8587827e-18 1.6686092e-17 6.3044993e-18 1.3743331e-17 6.98432e-18 9.053935e-18 7.641347e-18 5.746559e-18
2.3216077e-12 6.001911e-12 9.369806e-12 1.01650615e-11 1.3031648e-12 2.4237322e-12 2.939473e-12 8.918988e-12
7.679927e-12 1.335841e-11 8.016712e-12 1.7715446e-12 1.3255803e-11 2.7555282e-12 4.1572514e-12 1.15376155e-11
6.5357576e-12 5.8713737e-12 1.1610882e-11 1.3494014e-12 8.545298e-12 6.233811e-12 2.4760667e-12 1.1498144e-11
1.0285759e-12 1.9535452e-12 4.2242637e-12 4.344607e-12 6.4958753e-13 6.2972213e-13 1.2423242e-12 3.8139912e-12
2.871481e-12 6.6601134e-12 3.9661026e-12 7.054507e-13 6.5132444e-12 1.0064747e-12 1.8551094e-12 6.498317e-12
2.6149788e-12 1.9053665e-12 5.4642415e-12 3.3332942e-13 3.680639e-12 3.1315755e-12 1.5054503e-12 5.516225e-12
7.151832e-13 1.8977916e-12 6.624547e-12 1.5822283e-11 5.630403e-13 7.653493e-13 7.0759566e-12 1.2699587e-11
1.3546089e-11 2.298964e-11 8.637525e-12 7.522087e-13 1.9207145e-11 7.691154e-13 1.0714882e-12 1.834775e-11
3.0917705e-12 9.843195e-12 1.5163796e-11 2.6772569e-12 4.752685e-12 1.1016631e-11 1.2913052e-12 1.6667903e-11
1.4822642e-13 2.5062244e-13 2.2053563e-13 2.3076186e-13 1.6691534e-13 2.047759e-13 1.7567516e-13 2.0355141e-13
2.6283945e-13 3.0253287e-13 1.440736e-13 2.3891072e-13 2.608352e-13 1.7930227e-13 3.261961e-13 2.1382544e-13
2.1850735e-13 2.2900375e-13 1.966401e-13 1.1357223e-13 2.5653386e-13 1.5007642e-13 1.3218495e-13 2.1312598e-13
3.0120004e-13 4.664413e-13 5.103659e-13 8.9893956e-13 3.539879e-13 4.1987258e-13 5.8683863e-13 7.236e-13
9.321748e-13 1.2596142e-12 4.4823013e-13 5.237226e-13 1.0091633e-12 3.4620608e-13 7.099789e-13 9.431958e-13
4.2436635e-13 7.3260663e-13 7.6446244e-13 2.6501143e-13 5.6918803e-13 6.2686873e-13 2.8875605e-13 8.749213e-13
1.8101516e-14 3.4994943e-14 4.4417357e-14 1.1811303e-13 2.2103955e-14 3.286563e-14 6.80171e-14 8.811937e-14
1.1831185e-13 1.6437432e-13 4.4330706e-14 3.4694585e-14 1.2339938e-13 2.4566175e-14 4.0326236e-14 1.1067251e-13
3.309681e-14 9.0330704e-14 9.887742e-14 3.861675e-14 4.503071e-14 8.096574e-14 1.5944679e-14 1.0339786e-13
4.7633586e-27 4.549213e-26 3.5439012e-25 3.3542154e-25 1.0553965e-25 2.2907345e-26 9.984769e-30 1.2664833e-25
7.932751e-26 1.9375388e-26 7.391293e-28 1.2867953e-25 6.19837e-26 2.4766079e-26 2.675673e-26 8.3271094e-27
3.7727223e-26 1.2271488e-28 2.2862962e-26 1.168627e-26 9.42335e-26 3.1440537e-28 5.0813108e-27 1.2447441e-27
2.0995588e-12 5.6363703e-12 8.865036e-12 8.613996e-12 1.0328681e-12 2.1754057e-12 2.184243e-12 7.623969e-12
6.158825e-12 1.117692e-11 7.691547e-12 1.4078265e-12 1.143382e-11 2.5112933e-12 3.6553317e-12 1.0052387e-11
00000000: 12ea e22b 3498 552c 4268 822c c4ef 1c2c
00000010: 719f ba2b d495 032c 99d6 812b 9352 1b2c
00000020: e454 f92b f7a4 672c a0b0 3b2c 7aa5 002c
00000030: 37ef 7a2c 796a 032c 33e5 602c e325 652c
00000040: e294 522c 4a42 c02b e450 4c2c 65f2 1e2b
00000050: e7c9 852c dd10 e62b e638 e52b 7fad 4d2c
00000060: a280 232c f3be cc2c 420d 872d b5bf 362e
00000070: ee11 602c d1f4 a32c 31f7 b82d 78a1 0b2e
00000080: c05d 282e 41c7 812e f33c aa2d 1e17 a42c
00000090: 430e 4c2e 3431 852c bcac 9c2c 0087 412e
000000a0: 75d0 072d 5bd4 fa2d 6b55 232e 29a6 412d
000000b0: d4e9 412d fffa f72d c1aa 7b2c 60e7 332e
000000c0: e205 a422 fca7 e122 a086 4d22 a8d1 8b23
000000d0: 2e76 0923 39c1 3f23 1218 8f23 f567 ff22
000000e0: 0191 d823 e14b 9e23 23cb 3320 3204 4223
000000f0: a618 0723 ed42 4223 ed22 6823 6c44 1823
00000100: 2c5d 8e22 ece6 9923 5098 e822 0c85 7d23
00000110: 85d6 0023 0004 2723 3ef5 0c23 b702 d422
00000120: 5e5e 232c 692c d32c dbd5 242d 5ed3 322d
00000130: 7667 b72b 148e 2a2c d7d8 4e2c 8de7 1c2d
00000140: 511b 072d ee00 6b2d 1008 0d2d 9f52 f92b
00000150: d432 692d 2fe7 412c 3145 922c cdf8 4a2d
00000160: dff4 e52c a294 ce2c c442 4c2d 4fe9 bd2b
00000170: 9a54 162d 2e55 db2c da3c 2e2c 0947 4a2d
00000180: 5ac2 902b f177 092c c9a0 942c bedc 982c
00000190: b7d7 362b 4340 312b 72d7 ae2b 6131 862c
000001a0: 0110 4a2c f854 ea2c 7a8b 8b2c 1591 462b
000001b0: 172a e52c 13a6 8d2b ae8a 022c a3a3 e42c
000001c0: 4503 382c 0814 062c 8341 c02c d5a5 bb2a
000001d0: 4080 812c 735d 5c2c 90df d32b bd15 c22c
000001e0: 614e 492b 938b 052c 9d14 e92c 9d2c 8b2d
000001f0: 547b 1e2b 3b6d 572b 8df6 f82c db69 5f2d
00000200: 294e 6e2d 1138 ca2d f4f3 172d 59ba 532b
00000210: a5f2 a82d 9b7c 582b 6ecc 962b 7663 a12d
00000220: 6390 592c cf29 2d2d d561 852d 2c65 3c2c
00000230: 6138 a72c 7fce 412d 2cbc b52b c89c 922d
00000240: 5be3 262a 8016 8d2a 114d 782a 4ae8 812a
00000250: 12ee 3b2a a28e 662a ebca 452a b32d 652a
00000260: 28f7 932a 954f aa2a 6336 222a aa7e 862a
00000270: 50d6 922a 5ce0 492a d0a1 b72a fdbe 702a
00000280: 7504 762a ebea 802a a665 5d2a efbd ff29
00000290: 6d6a 902a 95f8 282a b8d3 142a 62f5 6f2a
000002a0: 808f a92a a34a 032b bda7 0f2b 6c07 7d2b
000002b0: 0847 c72a 045e ec2a 2e2e 252b e0ac 4b2b
000002c0: 2331 832b 6246 b12b c554 fc2a 316a 132b
000002d0: f106 8e2b 8ee5 c22a 5fd7 472b 36be 842b
000002e0: a3e5 ee2a df35 4e2b 532d 572b 2c30 952a
000002f0: 5236 202b a772 302b 228e a22a b944 762b
00000300: 410b a328 6c9a 1d29 ba09 4829 c3fb 042a
00000310: 4018 c728 7e03 1429 3029 9929 5c6d c629
00000320: 1235 052a ac11 392a d3a5 4729 2240 1c29
00000330: 73ef 0a2a be45 dd28 fc9c 3529 5c36 f929
00000340: 060e 1529 1b68 cb29 f4a6 de29 15ea 2d29
00000350: e0cc 4a29 9251 b629 ed9d 8f28 cfd4 e829
00000360: 32b2 bc13 2044 6115 5b5b db16 aa9d cf16
00000370: daa6 0216 05dd e214 e283 4a0f 75c8 1c16
00000380: c867 c415 72e2 bf14 4b3d 6a12 2c4c 1f16
00000390: d676 9915 7845 f514 2f7e 0415 76ef 2414
000003a0: f0d0 3a15 418f 1b11 7f6c e214 6e78 6714
000003b0: 944f e915 3047 c711 9d4a c913 d23c c512
000003c0: 4abe 132c e94f c62c 93f4 1b2d fd89 172d
000003d0: ff5c 912b a014 192c d3b3 192c 4e1f 062d
000003e0: c4b1 d82c 5fa0 442d a64f 072d 4c22 c62b
000003f0: 5925 492d 70b7 302c 4d9c 802c edd7 302d

exp_avg f4 [128]
3.2004584e-06 -2.4012859e-06 6e-45 -8.4829835e-06 -1.5661011e-05 7.458901e-06 8.507953e-07 -3.1082327e-06
2.433372e-07 6e-45 -9.051067e-06 -4.522763e-06 -1.271041e-06 -3.1598768e-07 2.375897e-06 2.8738807e-06
-8.751453e-07 1.0927712e-06 -6.4969404e-06 -1.1417898e-05 1.0860372e-06 2.078526e-06 -2.9044052e-06 -3.8717266e-07
-6.929388e-07 1.4298317e-06 1.1974129e-06 -4.2227157e-06 -3.01159e-08 -2.1567605e-06 -2.11184e-06 6e-45
-6e-45 0.0 -5.826953e-06 1.4553416e-06 6e-45 3.5786795e-07 -3.6510755e-06 -8.0695445e-06
-4.6202223e-07 -6.495908e-06 9.646752e-07 0.0 8.73267e-06 1.2201989e-06 -4.6272845e-07 7.1433296e-06
-8.596246e-06 5.6233785e-07 -3.7184834e-06 -5.5036708e-08 6e-45 -8.0143934e-08 0.0 1.3340753e-06
0.0 6e-45 -1.093443e-06 1.1076243e-06 -1.4717004e-06 -7.889505e-06 6e-45 2.1317178e-06
3.0922163e-06 -2.2483525e-07 -6.2827853e-06 0.0 -1.3621431e-07 6e-45 -1.4591232e-07 -3.0691746e-07
-5.5985215e-06 -1.1584881e-06 7.5120545e-07 1.3181761e-06 -6e-45 -6.538196e-07 1.1613057e-06 4.0171545e-07
1.5914695e-07 -6e-45 7.889639e-06 -1.7595855e-06 6e-45 6e-45 5.3951385e-06 6e-45
1.301666e-07 6e-45 7.942574e-07 -8.75174e-06 -4.0945656e-06 3.3653457e-06 6e-45 -1.7725887e-06
6e-45 0.0 0.0 1.0021594e-06 1.132958e-06 -1.1606306e-07 6e-45 6.8037855e-07
-2.1724122e-06 -8.959324e-06 -1.970186e-07 -1.2767586e-06 -1.0763689e-06 -6e-45 -7.648603e-07 -5.0483854e-06
1.666062e-06 7.254961e-07 6e-45 1.5196321e-06 -1.6416706e-06 6e-45 9.043852e-07 1.4744908e-06
-1.2953548e-06 7.704757e-06 -1.971816e-06 6e-45 1.8861765e-06 -4.763038e-06 -3.1347402e-06 -6e-45
00000000: 75c7 5636 c725 21b6 0400 0000 2352 0eb7
00000010: c45f 83b7 7947 fa36 3562 6435 0897 50b6
00000020: 03a4 8234 0400 0000 09da 17b7 3dc2 97b6
00000030: a398 aab5 04a5 a9b4 9a71 1f36 e5dc 4036
00000040: 87eb 6ab5 55ab 9235 4b00 dab6 808f 3fb7
00000050: f4c3 9135 ce7c 0b36 4de9 42b6 9bdc cfb4
00000060: 6402 3ab5 a5e8 bf35 cbb6 a035 dab0 8db6
00000070: c858 01b3 ddbc 10b6 23b9 0db6 0400 0000
00000080: 0400 0080 0000 0000 2585 c3b6 2855 c335
00000090: 0400 0000 ff20 c034 0005 75b6 6e62 07b7
000000a0: da0b f8b4 6df7 d9b6 fd79 8135 0000 0000
000000b0: 8882 1237 b7c5 a335 ea6c f8b4 bcb0 ef36
000000c0: 9838 10b7 90f3 1635 0f8b 79b6 8061 6cb3
000000d0: 0400 0000 981b acb3 0000 0000 7a0e b335
000000e0: 0000 0000 0400 0000 6ac2 92b5 aea9 9435
000000f0: 3e87 c5b5 2a5d 04b7 0400 0000 a20e 0f36
00000100: df83 4f36 3e6a 71b4 b7d0 d2b6 0000 0000
00000110: 4e42 12b4 0400 0000 13ac 1cb4 6ac6 a4b4
00000120: efda bbb6 597d 9bb5 72a6 4935 30ec b035
00000130: 0400 0080 2482 2fb5 29de 9b35 5aab d734
00000140: fbe1 2a34 0400 0080 be5d 0437 e62a ecb5
00000150: 0400 0000 0400 0000 e307 b536 0400 0000
00000160: ecc3 0b34 0400 0000 f434 5535 70d4 12b7
00000170: 0d64 89b6 33d8 6136 0400 0000 afe9 edb5
00000180: 0400 0000 0000 0000 0000 0000 ef81 8635
00000190: 2410 9835 583e f9b3 0400 0000 42a3 3635
000001a0: c2c9 11b6 0150 16b7 0f8c 53b4 175d abb5
000001b0: c177 90b5 0400 0080 cd50 4db5 4d65 a9b6
000001c0: 749d df35 b6bf 4235 0400 0000 29f6 cb35
000001d0: 5f57 dcb5 0400 0000 e1c4 7235 1ee7 c535
000001e0: 0ddc adb5 ae43 0137 8a53 04b6 0400 0000
000001f0: 8828 fd35 2fd2 9fb6 6d5e 52b6 0400 0080

exp_avg_sq f4 [128]
1.0705913e-09 7.162785e-09 1.4091735e-15 2.9088307e-09 9.9676685e-09 2.4639435e-09 1.10869265e-10 4.6991455e-10
5.7858263e-11 5.3590107e-25 2.4731948e-09 1.6472229e-09 3.0933286e-10 2.0823836e-11 5.589412e-10 8.447352e-10
2.0402909e-10 1.477212e-10 1.5864964e-09 1.2902389e-08 8.222535e-10 6.1212035e-10 4.7010734e-10 1.0670012e-09
9.341525e-11 4.7658206e-09 3.8288378e-10 3.5860054e-10 1.3634449e-10 2.2819258e-09 1.2191121e-08 1.3860445e-20
2.9622304e-25 0.0 2.2783158e-09 2.8758246e-10 4.5485466e-20 8.753546e-11 1.1791195e-09 4.030305e-09
3.338389e-10 3.5261614e-09 2.5382214e-09 0.0 6.941297e-09 4.1830336e-10 2.3809595e-11 2.1851227e-09
3.132575e-09 4.8922585e-11 7.773238e-10 3.8089042e-11 1.2508248e-27 1.5155854e-11 0.0 1.2442547e-09
0.0 3.0100662e-24 2.476592e-10 2.1851347e-10 8.300157e-11 1.6057896e-09 6.6620543e-22 3.1546252e-10
3.2431072e-10 1.8043091e-09 6.4616272e-09 0.0 9.188689e-11 1.7863742e-20 3.6148431e-10 2.9338674e-11
2.9905143e-09 1.7579469e-09 1.8466915e-10 4.7383736e-10 1.1964686e-20 1.05413185e-10 3.2297023e-10 1.8722701e-10
5.4217533e-09 3.607528e-19 4.883062e-09 2.1192607e-10 1.0782193e-21 7.084339e-21 5.9378613e-09 7.381774e-20
7.5829915e-10 4.7388123e-29 1.9022608e-11 6.19615e-09 1.0855353e-09 8.403139e-10 3.9821728e-18 6.167946e-10
5.191894e-25 0.0 0.0 1.6446264e-10 1.4870044e-10 5.9131805e-12 6.9059004e-23 2.252841e-09
1.0153547e-09 3.1689928e-09 9.259676e-12 1.5757616e-10 5.888059e-10 5.188381e-19 6.340354e-09 1.235676e-09
3.656506e-10 4.1293535e-10 1.9183932e-13 8.65452e-10 2.929587e-10 5.738366e-28 1.5460382e-10 3.0003727e-10
6.086885e-10 7.700588e-09 5.346226e-10 6.9693544e-26 5.7234942e-11 2.2788964e-09 7.2195844e-10 8.1693426e-24
00000000: 1524 9330 861c f631 5315 cb26 b1e4 4731
00000010: 453e 2b32 2752 2931 d9cd f32e 4c2b 0130
00000020: 9d76 7e2e 75da 2517 e7f4 2931 8164 e230
00000030: bb0e aa2f 1c2b b72d fea3 1930 f532 6830
00000040: 1555 602f d26b 222f e10b da30 4fa9 5d32
00000050: f204 6230 2442 2830 dd38 0130 c4a5 9230
00000060: 1c6c cd2e 9ac0 a331 1a7e d22f 8a24 c52f
00000070: 90e9 152f 10d0 1c31 1e71 5132 80e8 821e
00000080: 6a5a b716 0000 0000 8e90 1c31 a219 9e2f
00000090: 8ecc 561f 157e c02e 940e a230 f07a 8a31
000000a0: a687 b72f e350 7231 dd6c 2e31 0000 0000
000000b0: 4b80 ee31 f7f6 e52f 716e d12d 1629 1631
000000c0: d844 5731 ef29 572e 4dab 5530 7384 272e
000000d0: 7b33 c612 f34f 852d 0000 0000 5202 ab30
000000e0: 0000 0000 81e4 6818 ef26 882f 1342 702f
000000f0: bb85 b62e b3b2 dc30 2659 491c 676d ad2f
00000100: ad4a b22f 7cfb f730 1305 de31 0000 0000
00000110: b80f ca2e e1b7 a81e 65ba c62f 6908 012e
00000120: af81 4d31 429c f130 bf0b 4b2f 573f 0230
00000130: ac01 621e 59ce e72e 058e b12f b8db 4d2f
00000140: 3f4a ba31 6cf3 d420 dec7 a731 e303 692f
00000150: 97ef a21c c3d1 051e fb05 cc31 164c ae1f
00000160: 8f70 5030 4d49 7010 1b53 a72d e9e5 d431
00000170: e131 9530 d5fb 6630 8fea 9222 108b 2930
00000180: 6cae 2017 0000 0000 0000 0000 1ed4 342f
00000190: 747f 232f 320d d02c 74f9 a61a 66d0 1a31
000001a0: 9e8c 8b30 83c5 5931 e0e5 222d bf41 2d2f
000001b0: 88d9 2130 4c22 1921 58da d931 7cd4 a930
000001c0: bf04 c92f 7c03 e32f ebfd 572a c5e4 6d30
000001d0: 460e a12f 28db 3512 1bfd 292f 7ef2 a42f
000001e0: a550 2730 8b4b 0432 b9f4 1230 888d ac15
000001f0: d1b8 7b2e c59a 1c31 4f73 4630 a004 1e19
